HloModule jit_train_step, is_scheduled=true, input_output_alias={ {0}: (3, {}, may-alias), {1}: (0, {}, may-alias), {2}: (1, {}, may-alias), {3}: (2, {}, may-alias), {4}: (13, {}, may-alias), {5}: (4, {}, may-alias), {6}: (5, {}, may-alias), {7}: (6, {}, may-alias), {8}: (7, {}, may-alias), {9}: (8, {}, may-alias), {10}: (9, {}, may-alias), {11}: (10, {}, may-alias), {12}: (11, {}, may-alias), {13}: (12, {}, may-alias), {14}: (17, {}, may-alias), {15}: (14, {}, may-alias), {16}: (15, {}, may-alias), {17}: (16, {}, may-alias), {18}: (30, {}, may-alias), {19}: (18, {}, may-alias), {20}: (19, {}, may-alias), {21}: (20, {}, may-alias), {22}: (21, {}, may-alias), {23}: (22, {}, may-alias), {24}: (23, {}, may-alias), {25}: (24, {}, may-alias), {26}: (25, {}, may-alias), {27}: (26, {}, may-alias), {28}: (27, {}, may-alias), {29}: (28, {}, may-alias), {30}: (29, {}, may-alias), {32}: (31, {}, may-alias), {33}: (32, {}, may-alias), {34}: (33, {}, may-alias), {35}: (34, {}, may-alias), {36}: (35, {}, may-alias), {37}: (36, {}, may-alias), {38}: (37, {}, may-alias), {39}: (38, {}, may-alias), {40}: (39, {}, may-alias) }, entry_computation_layout={(bf16[128256,512]{1,0:T(8,128)(2,1)}, bf16[16032,4096]{1,0:T(8,128)(2,1)}, bf16[512]{0:T(512)(128)(2,1)}, f32[64]{0:T(128)}, bf16[32,512]{1,0:T(8,128)(2,1)}, /*index=5*/bf16[32,512,14336]{2,1,0:T(8,128)(2,1)}, bf16[32,14336,512]{2,1,0:T(8,128)(2,1)}, bf16[32,14336,512]{2,1,0:T(8,128)(2,1)}, bf16[32,512]{1,0:T(8,128)(2,1)}, bf16[32,1024,512]{2,1,0:T(8,128)(2,1)}, /*index=10*/bf16[32,512,4096]{2,1,0:T(8,128)(2,1)}, bf16[32,4096,512]{2,1,0:T(8,128)(2,1)}, bf16[32,1024,512]{2,1,0:T(8,128)(2,1)}, s32[]{:T(128)}, f32[128256,512]{1,0:T(8,128)}, /*index=15*/f32[16032,4096]{1,0:T(8,128)}, f32[512]{0:T(512)}, f32[64]{0:T(128)}, f32[32,512]{1,0:T(8,128)}, f32[32,512,14336]{2,1,0:T(8,128)}, /*index=20*/f32[32,14336,512]{2,1,0:T(8,128)}, f32[32,14336,512]{2,1,0:T(8,128)}, f32[32,512]{1,0:T(8,128)}, f32[32,1024,512]{2,1,0:T(8,128)}, f32[32,512,4096]{2,1,0:T(8,128)}, /*index=25*/f32[32,4096,512]{2,1,0:T(8,128)}, f32[32,1024,512]{2,1,0:T(8,128)}, bf16[128256,512]{1,0:T(8,128)(2,1)}, bf16[16032,4096]{1,0:T(8,128)(2,1)}, bf16[512]{0:T(512)(128)(2,1)}, /*index=30*/f32[64]{0:T(128)}, bf16[32,512]{1,0:T(8,128)(2,1)}, bf16[32,512,14336]{2,1,0:T(8,128)(2,1)}, bf16[32,14336,512]{2,1,0:T(8,128)(2,1)}, bf16[32,14336,512]{2,1,0:T(8,128)(2,1)}, /*index=35*/bf16[32,512]{1,0:T(8,128)(2,1)}, bf16[32,1024,512]{2,1,0:T(8,128)(2,1)}, bf16[32,512,4096]{2,1,0:T(8,128)(2,1)}, bf16[32,4096,512]{2,1,0:T(8,128)(2,1)}, bf16[32,1024,512]{2,1,0:T(8,128)(2,1)}, /*index=40*/s32[4,8192]{1,0:T(4,128)}, s32[4,8192]{1,0:T(4,128)})->(f32[]{:T(128)}, bf16[128256,512]{1,0:T(8,128)(2,1)}, bf16[16032,4096]{1,0:T(8,128)(2,1)}, bf16[512]{0:T(512)(128)(2,1)}, f32[64]{0:T(128)}, /*index=5*/bf16[32,512]{1,0:T(8,128)(2,1)}, bf16[32,512,14336]{2,1,0:T(8,128)(2,1)}, bf16[32,14336,512]{2,1,0:T(8,128)(2,1)}, bf16[32,14336,512]{2,1,0:T(8,128)(2,1)}, bf16[32,512]{1,0:T(8,128)(2,1)}, /*index=10*/bf16[32,1024,512]{2,1,0:T(8,128)(2,1)}, bf16[32,512,4096]{2,1,0:T(8,128)(2,1)}, bf16[32,4096,512]{2,1,0:T(8,128)(2,1)}, bf16[32,1024,512]{2,1,0:T(8,128)(2,1)}, s32[]{:T(128)}, /*index=15*/f32[128256,512]{1,0:T(8,128)}, f32[16032,4096]{1,0:T(8,128)}, f32[512]{0:T(512)}, f32[64]{0:T(128)}, f32[32,512]{1,0:T(8,128)}, /*index=20*/f32[32,512,14336]{2,1,0:T(8,128)}, f32[32,14336,512]{2,1,0:T(8,128)}, f32[32,14336,512]{2,1,0:T(8,128)}, f32[32,512]{1,0:T(8,128)}, f32[32,1024,512]{2,1,0:T(8,128)}, /*index=25*/f32[32,512,4096]{2,1,0:T(8,128)}, f32[32,4096,512]{2,1,0:T(8,128)}, f32[32,1024,512]{2,1,0:T(8,128)}, bf16[128256,512]{1,0:T(8,128)(2,1)}, bf16[16032,4096]{1,0:T(8,128)(2,1)}, /*index=30*/bf16[512]{0:T(512)(128)(2,1)}, f32[64]{0:T(128)}, bf16[32,512]{1,0:T(8,128)(2,1)}, bf16[32,512,14336]{2,1,0:T(8,128)(2,1)}, bf16[32,14336,512]{2,1,0:T(8,128)(2,1)}, /*index=35*/bf16[32,14336,512]{2,1,0:T(8,128)(2,1)}, bf16[32,512]{1,0:T(8,128)(2,1)}, bf16[32,1024,512]{2,1,0:T(8,128)(2,1)}, bf16[32,512,4096]{2,1,0:T(8,128)(2,1)}, bf16[32,4096,512]{2,1,0:T(8,128)(2,1)}, /*index=40*/bf16[32,1024,512]{2,1,0:T(8,128)(2,1)})}, allow_spmd_sharding_propagation_to_parameters={false,false,false,false,false,false,false,false,false,false,false,false,false,false,false,false,false,false,false,false,false,false,false,false,false,false,false,false,false,false,false,false,false,false,false,false,false,false,false,false,false,false}, allow_spmd_sharding_propagation_to_output={true,true,true,true,true,true,true,true,true,true,true,true,true,true,true,true,true,true,true,true,true,true,true,true,true,true,true,true,true,true,true,true,true,true,true,true,true,true,true,true,true}, num_partitions=8

FileNames
1 "/app/trainer/train.py"
2 "/opt/venv/lib/python3.12/site-packages/fire/core.py"
3 "/app/trainer/model/modeling_llama3.py"
4 "/app/trainer/splash_attn.py"
5 "/app/trainer/tokamax_lib/tokamax/_src/ops/experimental/tpu/splash_attention/splash_attention_kernel.py"
6 "/app/trainer/tokamax_lib/tokamax/_src/ops/experimental/tpu/splash_attention/splash_attention_mask_info.py"
7 "/app/trainer/tokamax_lib/tokamax/_src/ops/linear_softmax_cross_entropy_loss/api.py"
8 "/app/trainer/tokamax_lib/tokamax/_src/ops/op.py"
9 "/app/trainer/tokamax_lib/tokamax/_src/batching.py"
10 "/app/trainer/tokamax_lib/tokamax/_src/ops/linear_softmax_cross_entropy_loss/chunked_xla.py"
11 "/opt/venv/lib/python3.12/site-packages/optax/_src/update.py"
12 "/opt/venv/lib/python3.12/site-packages/optax/transforms/_combining.py"
13 "/opt/venv/lib/python3.12/site-packages/optax/_src/base.py"
14 "/opt/venv/lib/python3.12/site-packages/optax/_src/transform.py"
15 "/opt/venv/lib/python3.12/site-packages/optax/tree_utils/_tree_math.py"
16 "/opt/venv/lib/python3.12/site-packages/optax/_src/numerics.py"
17 "/opt/venv/lib/python3.12/site-packages/optax/transforms/_adding.py"

FunctionNames
1 "<module>"
2 "Fire"
3 "_Fire"
4 "_CallAndUpdateTrace"
5 "main"
6 "main.<locals>.train_step"
7 "main.<locals>.loss_fn"
8 "LlamaForCausalLMScan.__call__"
9 "LlamaEmbedding.__call__"
10 "LlamaForCausalLMScan.__call__.<locals>.body"
11 "_decoder_call"
12 "_attn_splash"
13 "tpu_splash_attention"
14 "tpu_splash_attention.<locals>.wrap_flash_attention"
15 "SplashAttentionKernel.__call__"
16 "_splash_attention"
17 "_splash_attention_custom"
18 "_splash_attention_forward"
19 "find_bounds"
20 "_splash_attention_forward.<locals>.init_if_empty"
21 "LlamaRotaryEmbedding.__call__"
22 "_decoder_call.<locals>._rmsnorm"
23 "_decoder_call.<locals>._matmul"
24 "apply_rotary_pos_emb"
25 "_rotate_half"
26 "LlamaRMSNorm.__call__"
27 "main.<locals>._ce_tokamax"
28 "main.<locals>._ce_tokamax.<locals>._ce_local"
29 "linear_softmax_cross_entropy_loss"
30 "Op.__call__"
31 "capture_batched_args.<locals>.wrapped"
32 "capture_batched_args.<locals>.wrapped.<locals>.fn_flat"
33 "Op.__call__.<locals>.fwd"
34 "ChunkedXlaLinearSoftmaxCrossEntropyLoss._fwd"
35 "linear_softmax_cross_entropy_loss_fwd_chunked_xla"
36 "linear_softmax_cross_entropy_loss_fwd_chunked_xla.<locals>.b_loop_body"
37 "linear_softmax_cross_entropy_loss_fwd_chunked_xla.<locals>.b_loop_body.<locals>.v_loop_body"
38 "apply_updates"
39 "apply_updates.<locals>.<lambda>"
40 "chain.<locals>.update_fn"
41 "with_extra_args_support.<locals>.update"
42 "scale_by_adam.<locals>.update_fn"
43 "tree_update_moment"
44 "tree_update_moment.<locals>.<lambda>"
45 "safe_increment"
46 "tree_update_moment_per_elem_norm"
47 "tree_update_moment_per_elem_norm.<locals>.<lambda>"
48 "tree_update_moment_per_elem_norm.<locals>.orderth_norm"
49 "scale_by_adam.<locals>.update_fn.<locals>.<lambda>"
50 "add_decayed_weights.<locals>.update_fn"
51 "add_decayed_weights.<locals>.update_fn.<locals>.<lambda>"
52 "scale.<locals>.update_fn"
53 "scale.<locals>.update_fn.<locals>.<lambda>"

FileLocations
1 {file_name_id=1 function_name_id=1 line=562 end_line=562 column=4 end_column=4}
2 {file_name_id=2 function_name_id=2 line=135 end_line=135 column=20 end_column=20}
3 {file_name_id=2 function_name_id=3 line=468 end_line=468 column=36 end_column=36}
4 {file_name_id=2 function_name_id=4 line=684 end_line=684 column=16 end_column=16}
5 {file_name_id=1 function_name_id=5 line=495 end_line=495 column=33 end_column=33}
6 {file_name_id=1 function_name_id=6 line=449 end_line=449 column=30 end_column=30}
7 {file_name_id=1 function_name_id=7 line=436 end_line=436 column=21 end_column=21}
8 {file_name_id=3 function_name_id=8 line=946 end_line=946 column=17 end_column=17}
9 {file_name_id=3 function_name_id=9 line=226 end_line=226 column=14 end_column=14}
10 {file_name_id=3 function_name_id=8 line=975 end_line=975 column=20 end_column=20}
11 {file_name_id=3 function_name_id=10 line=965 end_line=965 column=25 end_column=25}
12 {file_name_id=3 function_name_id=11 line=843 end_line=843 column=19 end_column=19}
13 {file_name_id=3 function_name_id=12 line=406 end_line=406 column=11 end_column=11}
14 {file_name_id=4 function_name_id=13 line=191 end_line=191 column=6 end_column=6}
15 {file_name_id=4 function_name_id=14 line=175 end_line=175 column=11 end_column=11}
16 {file_name_id=5 function_name_id=15 line=1964 end_line=1964 column=11 end_column=11}
17 {file_name_id=5 function_name_id=16 line=1931 end_line=1931 column=9 end_column=9}
18 {file_name_id=5 function_name_id=17 line=986 end_line=986 column=8 end_column=8}
19 {file_name_id=5 function_name_id=18 line=556 end_line=556 column=29 end_column=29}
20 {file_name_id=6 function_name_id=19 line=42 end_line=42 column=25 end_column=25}
21 {file_name_id=6 function_name_id=19 line=43 end_line=43 column=23 end_column=23}
22 {file_name_id=5 function_name_id=18 line=910 end_line=910 column=8 end_column=8}
23 {file_name_id=5 function_name_id=20 line=908 end_line=908 column=11 end_column=11}
24 {file_name_id=3 function_name_id=8 line=948 end_line=948 column=44 end_column=44}
25 {file_name_id=3 function_name_id=8 line=949 end_line=949 column=19 end_column=19}
26 {file_name_id=3 function_name_id=21 line=273 end_line=273 column=14 end_column=14}
27 {file_name_id=3 function_name_id=21 line=275 end_line=275 column=16 end_column=16}
28 {file_name_id=3 function_name_id=21 line=276 end_line=276 column=14 end_column=14}
29 {file_name_id=3 function_name_id=21 line=277 end_line=277 column=14 end_column=14}
30 {file_name_id=3 function_name_id=21 line=279 end_line=279 column=15 end_column=15}
31 {file_name_id=3 function_name_id=21 line=278 end_line=278 column=14 end_column=14}
32 {file_name_id=3 function_name_id=21 line=279 end_line=279 column=34 end_column=34}
33 {file_name_id=3 function_name_id=11 line=828 end_line=828 column=8 end_column=8}
34 {file_name_id=3 function_name_id=22 line=804 end_line=804 column=14 end_column=14}
35 {file_name_id=3 function_name_id=22 line=806 end_line=806 column=21 end_column=21}
36 {file_name_id=3 function_name_id=22 line=806 end_line=806 column=12 end_column=12}
37 {file_name_id=3 function_name_id=22 line=805 end_line=805 column=20 end_column=20}
38 {file_name_id=3 function_name_id=22 line=808 end_line=808 column=16 end_column=16}
39 {file_name_id=3 function_name_id=22 line=808 end_line=808 column=34 end_column=34}
40 {file_name_id=3 function_name_id=22 line=808 end_line=808 column=15 end_column=15}
41 {file_name_id=3 function_name_id=11 line=830 end_line=830 column=14 end_column=14}
42 {file_name_id=3 function_name_id=23 line=816 end_line=816 column=15 end_column=15}
43 {file_name_id=3 function_name_id=11 line=832 end_line=832 column=8 end_column=8}
44 {file_name_id=3 function_name_id=11 line=839 end_line=839 column=11 end_column=11}
45 {file_name_id=3 function_name_id=24 line=81 end_line=81 column=12 end_column=12}
46 {file_name_id=3 function_name_id=24 line=81 end_line=81 column=24 end_column=24}
47 {file_name_id=3 function_name_id=25 line=66 end_line=66 column=9 end_column=9}
48 {file_name_id=3 function_name_id=25 line=67 end_line=67 column=28 end_column=28}
49 {file_name_id=3 function_name_id=25 line=65 end_line=65 column=9 end_column=9}
50 {file_name_id=3 function_name_id=25 line=67 end_line=67 column=11 end_column=11}
51 {file_name_id=3 function_name_id=24 line=81 end_line=81 column=11 end_column=11}
52 {file_name_id=3 function_name_id=11 line=833 end_line=833 column=14 end_column=14}
53 {file_name_id=3 function_name_id=11 line=835 end_line=835 column=8 end_column=8}
54 {file_name_id=3 function_name_id=24 line=81 end_line=81 column=49 end_column=49}
55 {file_name_id=3 function_name_id=24 line=81 end_line=81 column=61 end_column=61}
56 {file_name_id=3 function_name_id=24 line=81 end_line=81 column=48 end_column=48}
57 {file_name_id=3 function_name_id=11 line=836 end_line=836 column=14 end_column=14}
58 {file_name_id=3 function_name_id=11 line=838 end_line=838 column=8 end_column=8}
59 {file_name_id=3 function_name_id=11 line=849 end_line=849 column=15 end_column=15}
60 {file_name_id=3 function_name_id=11 line=850 end_line=850 column=21 end_column=21}
61 {file_name_id=3 function_name_id=11 line=851 end_line=851 column=13 end_column=13}
62 {file_name_id=3 function_name_id=11 line=854 end_line=854 column=8 end_column=8}
63 {file_name_id=3 function_name_id=11 line=856 end_line=856 column=14 end_column=14}
64 {file_name_id=3 function_name_id=11 line=859 end_line=859 column=16 end_column=16}
65 {file_name_id=3 function_name_id=11 line=857 end_line=857 column=14 end_column=14}
66 {file_name_id=3 function_name_id=11 line=859 end_line=859 column=8 end_column=8}
67 {file_name_id=3 function_name_id=11 line=862 end_line=862 column=11 end_column=11}
68 {file_name_id=3 function_name_id=8 line=976 end_line=976 column=17 end_column=17}
69 {file_name_id=3 function_name_id=26 line=132 end_line=132 column=14 end_column=14}
70 {file_name_id=3 function_name_id=26 line=134 end_line=134 column=21 end_column=21}
71 {file_name_id=3 function_name_id=26 line=134 end_line=134 column=12 end_column=12}
72 {file_name_id=3 function_name_id=26 line=133 end_line=133 column=20 end_column=20}
73 {file_name_id=3 function_name_id=26 line=136 end_line=136 column=16 end_column=16}
74 {file_name_id=3 function_name_id=26 line=136 end_line=136 column=34 end_column=34}
75 {file_name_id=3 function_name_id=26 line=136 end_line=136 column=15 end_column=15}
76 {file_name_id=1 function_name_id=7 line=438 end_line=438 column=19 end_column=19}
77 {file_name_id=1 function_name_id=27 line=397 end_line=397 column=14 end_column=14}
78 {file_name_id=1 function_name_id=27 line=391 end_line=391 column=17 end_column=17}
79 {file_name_id=1 function_name_id=27 line=398 end_line=398 column=14 end_column=14}
80 {file_name_id=1 function_name_id=27 line=420 end_line=420 column=15 end_column=15}
81 {file_name_id=1 function_name_id=28 line=405 end_line=405 column=24 end_column=24}
82 {file_name_id=7 function_name_id=29 line=100 end_line=100 column=13 end_column=13}
83 {file_name_id=8 function_name_id=30 line=293 end_line=293 column=11 end_column=11}
84 {file_name_id=9 function_name_id=31 line=213 end_line=213 column=11 end_column=11}
85 {file_name_id=9 function_name_id=32 line=191 end_line=191 column=13 end_column=13}
86 {file_name_id=8 function_name_id=33 line=243 end_line=243 column=25 end_column=25}
87 {file_name_id=10 function_name_id=34 line=305 end_line=305 column=16 end_column=16}
88 {file_name_id=10 function_name_id=35 line=156 end_line=156 column=7 end_column=7}
89 {file_name_id=10 function_name_id=35 line=96 end_line=96 column=13 end_column=13}
90 {file_name_id=10 function_name_id=35 line=152 end_line=152 column=22 end_column=22}
91 {file_name_id=10 function_name_id=36 line=136 end_line=136 column=12 end_column=12}
92 {file_name_id=10 function_name_id=36 line=137 end_line=137 column=12 end_column=12}
93 {file_name_id=10 function_name_id=36 line=106 end_line=106 column=14 end_column=14}
94 {file_name_id=10 function_name_id=36 line=131 end_line=131 column=35 end_column=35}
95 {file_name_id=10 function_name_id=37 line=112 end_line=112 column=12 end_column=12}
96 {file_name_id=10 function_name_id=37 line=111 end_line=111 column=17 end_column=17}
97 {file_name_id=10 function_name_id=37 line=110 end_line=110 column=16 end_column=16}
98 {file_name_id=10 function_name_id=37 line=113 end_line=113 column=12 end_column=12}
99 {file_name_id=10 function_name_id=37 line=114 end_line=114 column=18 end_column=18}
100 {file_name_id=10 function_name_id=37 line=119 end_line=119 column=18 end_column=18}
101 {file_name_id=10 function_name_id=37 line=118 end_line=118 column=16 end_column=16}
102 {file_name_id=10 function_name_id=37 line=124 end_line=124 column=10 end_column=10}
103 {file_name_id=10 function_name_id=37 line=123 end_line=123 column=23 end_column=23}
104 {file_name_id=10 function_name_id=37 line=127 end_line=127 column=10 end_column=10}
105 {file_name_id=10 function_name_id=37 line=126 end_line=126 column=57 end_column=57}
106 {file_name_id=10 function_name_id=37 line=126 end_line=126 column=32 end_column=32}
107 {file_name_id=10 function_name_id=36 line=148 end_line=148 column=14 end_column=14}
108 {file_name_id=10 function_name_id=36 line=142 end_line=142 column=13 end_column=13}
109 {file_name_id=10 function_name_id=36 line=143 end_line=143 column=13 end_column=13}
110 {file_name_id=10 function_name_id=36 line=145 end_line=145 column=28 end_column=28}
111 {file_name_id=10 function_name_id=36 line=149 end_line=149 column=16 end_column=16}
112 {file_name_id=10 function_name_id=36 line=146 end_line=146 column=19 end_column=19}
113 {file_name_id=10 function_name_id=36 line=149 end_line=149 column=49 end_column=49}
114 {file_name_id=10 function_name_id=36 line=149 end_line=149 column=4 end_column=4}
115 {file_name_id=1 function_name_id=28 line=412 end_line=412 column=19 end_column=19}
116 {file_name_id=1 function_name_id=6 line=452 end_line=452 column=24 end_column=24}
117 {file_name_id=11 function_name_id=38 line=41 end_line=41 column=9 end_column=9}
118 {file_name_id=11 function_name_id=39 line=43 end_line=43 column=45 end_column=45}
119 {file_name_id=1 function_name_id=6 line=451 end_line=451 column=37 end_column=37}
120 {file_name_id=12 function_name_id=40 line=90 end_line=90 column=23 end_column=23}
121 {file_name_id=13 function_name_id=41 line=336 end_line=336 column=11 end_column=11}
122 {file_name_id=14 function_name_id=42 line=283 end_line=283 column=9 end_column=9}
123 {file_name_id=15 function_name_id=43 line=355 end_line=355 column=9 end_column=9}
124 {file_name_id=15 function_name_id=44 line=357 end_line=357 column=10 end_column=10}
125 {file_name_id=15 function_name_id=44 line=357 end_line=357 column=37 end_column=37}
126 {file_name_id=14 function_name_id=42 line=285 end_line=285 column=16 end_column=16}
127 {file_name_id=16 function_name_id=45 line=142 end_line=142 column=19 end_column=19}
128 {file_name_id=16 function_name_id=45 line=142 end_line=142 column=38 end_column=38}
129 {file_name_id=16 function_name_id=45 line=142 end_line=142 column=9 end_column=9}
130 {file_name_id=14 function_name_id=42 line=294 end_line=294 column=15 end_column=15}
131 {file_name_id=14 function_name_id=42 line=284 end_line=284 column=9 end_column=9}
132 {file_name_id=15 function_name_id=46 line=390 end_line=390 column=9 end_column=9}
133 {file_name_id=15 function_name_id=47 line=392 end_line=392 column=24 end_column=24}
134 {file_name_id=15 function_name_id=48 line=382 end_line=382 column=13 end_column=13}
135 {file_name_id=15 function_name_id=47 line=392 end_line=392 column=10 end_column=10}
136 {file_name_id=14 function_name_id=42 line=298 end_line=298 column=13 end_column=13}
137 {file_name_id=14 function_name_id=42 line=299 end_line=299 column=14 end_column=14}
138 {file_name_id=14 function_name_id=49 line=300 end_line=300 column=49 end_column=49}
139 {file_name_id=14 function_name_id=49 line=300 end_line=300 column=44 end_column=44}
140 {file_name_id=17 function_name_id=50 line=64 end_line=64 column=14 end_column=14}
141 {file_name_id=17 function_name_id=51 line=65 end_line=65 column=48 end_column=48}
142 {file_name_id=17 function_name_id=51 line=65 end_line=65 column=44 end_column=44}
143 {file_name_id=14 function_name_id=52 line=467 end_line=467 column=14 end_column=14}
144 {file_name_id=14 function_name_id=53 line=467 end_line=467 column=37 end_column=37}
145 {file_name_id=11 function_name_id=39 line=43 end_line=43 column=33 end_column=33}
146 {file_name_id=15 function_name_id=47 line=392 end_line=392 column=42 end_column=42}

StackFrames
1 {file_location_id=1 parent_frame_id=0}
2 {file_location_id=2 parent_frame_id=1}
3 {file_location_id=3 parent_frame_id=2}
4 {file_location_id=4 parent_frame_id=3}
5 {file_location_id=5 parent_frame_id=4}
6 {file_location_id=6 parent_frame_id=5}
7 {file_location_id=7 parent_frame_id=6}
8 {file_location_id=8 parent_frame_id=7}
9 {file_location_id=9 parent_frame_id=8}
10 {file_location_id=10 parent_frame_id=7}
11 {file_location_id=3 parent_frame_id=0}
12 {file_location_id=4 parent_frame_id=11}
13 {file_location_id=5 parent_frame_id=12}
14 {file_location_id=6 parent_frame_id=13}
15 {file_location_id=7 parent_frame_id=14}
16 {file_location_id=10 parent_frame_id=15}
17 {file_location_id=11 parent_frame_id=16}
18 {file_location_id=12 parent_frame_id=17}
19 {file_location_id=13 parent_frame_id=18}
20 {file_location_id=14 parent_frame_id=19}
21 {file_location_id=11 parent_frame_id=0}
22 {file_location_id=12 parent_frame_id=21}
23 {file_location_id=13 parent_frame_id=22}
24 {file_location_id=14 parent_frame_id=23}
25 {file_location_id=15 parent_frame_id=24}
26 {file_location_id=16 parent_frame_id=25}
27 {file_location_id=17 parent_frame_id=26}
28 {file_location_id=18 parent_frame_id=27}
29 {file_location_id=19 parent_frame_id=28}
30 {file_location_id=20 parent_frame_id=29}
31 {file_location_id=6 parent_frame_id=0}
32 {file_location_id=7 parent_frame_id=31}
33 {file_location_id=10 parent_frame_id=32}
34 {file_location_id=11 parent_frame_id=33}
35 {file_location_id=12 parent_frame_id=34}
36 {file_location_id=13 parent_frame_id=35}
37 {file_location_id=14 parent_frame_id=36}
38 {file_location_id=15 parent_frame_id=37}
39 {file_location_id=16 parent_frame_id=38}
40 {file_location_id=17 parent_frame_id=39}
41 {file_location_id=21 parent_frame_id=29}
42 {file_location_id=22 parent_frame_id=28}
43 {file_location_id=23 parent_frame_id=42}
44 {file_location_id=24 parent_frame_id=7}
45 {file_location_id=25 parent_frame_id=7}
46 {file_location_id=26 parent_frame_id=45}
47 {file_location_id=27 parent_frame_id=45}
48 {file_location_id=28 parent_frame_id=45}
49 {file_location_id=29 parent_frame_id=45}
50 {file_location_id=30 parent_frame_id=45}
51 {file_location_id=31 parent_frame_id=45}
52 {file_location_id=32 parent_frame_id=45}
53 {file_location_id=2 parent_frame_id=0}
54 {file_location_id=3 parent_frame_id=53}
55 {file_location_id=4 parent_frame_id=54}
56 {file_location_id=5 parent_frame_id=55}
57 {file_location_id=6 parent_frame_id=56}
58 {file_location_id=7 parent_frame_id=57}
59 {file_location_id=10 parent_frame_id=58}
60 {file_location_id=11 parent_frame_id=59}
61 {file_location_id=33 parent_frame_id=60}
62 {file_location_id=34 parent_frame_id=61}
63 {file_location_id=35 parent_frame_id=61}
64 {file_location_id=36 parent_frame_id=61}
65 {file_location_id=37 parent_frame_id=61}
66 {file_location_id=38 parent_frame_id=61}
67 {file_location_id=39 parent_frame_id=61}
68 {file_location_id=40 parent_frame_id=61}
69 {file_location_id=41 parent_frame_id=60}
70 {file_location_id=42 parent_frame_id=69}
71 {file_location_id=11 parent_frame_id=10}
72 {file_location_id=43 parent_frame_id=71}
73 {file_location_id=44 parent_frame_id=60}
74 {file_location_id=45 parent_frame_id=73}
75 {file_location_id=44 parent_frame_id=17}
76 {file_location_id=46 parent_frame_id=75}
77 {file_location_id=47 parent_frame_id=76}
78 {file_location_id=48 parent_frame_id=76}
79 {file_location_id=49 parent_frame_id=76}
80 {file_location_id=50 parent_frame_id=76}
81 {file_location_id=46 parent_frame_id=73}
82 {file_location_id=51 parent_frame_id=73}
83 {file_location_id=52 parent_frame_id=60}
84 {file_location_id=42 parent_frame_id=83}
85 {file_location_id=53 parent_frame_id=71}
86 {file_location_id=54 parent_frame_id=73}
87 {file_location_id=55 parent_frame_id=75}
88 {file_location_id=47 parent_frame_id=87}
89 {file_location_id=48 parent_frame_id=87}
90 {file_location_id=49 parent_frame_id=87}
91 {file_location_id=50 parent_frame_id=87}
92 {file_location_id=55 parent_frame_id=73}
93 {file_location_id=56 parent_frame_id=73}
94 {file_location_id=57 parent_frame_id=60}
95 {file_location_id=42 parent_frame_id=94}
96 {file_location_id=58 parent_frame_id=71}
97 {file_location_id=59 parent_frame_id=71}
98 {file_location_id=60 parent_frame_id=60}
99 {file_location_id=42 parent_frame_id=98}
100 {file_location_id=61 parent_frame_id=71}
101 {file_location_id=62 parent_frame_id=60}
102 {file_location_id=34 parent_frame_id=101}
103 {file_location_id=35 parent_frame_id=101}
104 {file_location_id=36 parent_frame_id=101}
105 {file_location_id=37 parent_frame_id=101}
106 {file_location_id=38 parent_frame_id=101}
107 {file_location_id=39 parent_frame_id=101}
108 {file_location_id=40 parent_frame_id=101}
109 {file_location_id=63 parent_frame_id=60}
110 {file_location_id=42 parent_frame_id=109}
111 {file_location_id=64 parent_frame_id=71}
112 {file_location_id=65 parent_frame_id=60}
113 {file_location_id=42 parent_frame_id=112}
114 {file_location_id=66 parent_frame_id=60}
115 {file_location_id=42 parent_frame_id=114}
116 {file_location_id=67 parent_frame_id=71}
117 {file_location_id=68 parent_frame_id=7}
118 {file_location_id=69 parent_frame_id=117}
119 {file_location_id=70 parent_frame_id=117}
120 {file_location_id=71 parent_frame_id=117}
121 {file_location_id=72 parent_frame_id=117}
122 {file_location_id=73 parent_frame_id=117}
123 {file_location_id=74 parent_frame_id=117}
124 {file_location_id=75 parent_frame_id=117}
125 {file_location_id=76 parent_frame_id=6}
126 {file_location_id=77 parent_frame_id=125}
127 {file_location_id=78 parent_frame_id=125}
128 {file_location_id=79 parent_frame_id=125}
129 {file_location_id=80 parent_frame_id=125}
130 {file_location_id=76 parent_frame_id=0}
131 {file_location_id=80 parent_frame_id=130}
132 {file_location_id=81 parent_frame_id=131}
133 {file_location_id=82 parent_frame_id=132}
134 {file_location_id=83 parent_frame_id=133}
135 {file_location_id=84 parent_frame_id=134}
136 {file_location_id=85 parent_frame_id=135}
137 {file_location_id=86 parent_frame_id=136}
138 {file_location_id=87 parent_frame_id=137}
139 {file_location_id=88 parent_frame_id=138}
140 {file_location_id=89 parent_frame_id=138}
141 {file_location_id=90 parent_frame_id=138}
142 {file_location_id=80 parent_frame_id=0}
143 {file_location_id=81 parent_frame_id=142}
144 {file_location_id=82 parent_frame_id=143}
145 {file_location_id=83 parent_frame_id=144}
146 {file_location_id=84 parent_frame_id=145}
147 {file_location_id=85 parent_frame_id=146}
148 {file_location_id=86 parent_frame_id=147}
149 {file_location_id=87 parent_frame_id=148}
150 {file_location_id=90 parent_frame_id=149}
151 {file_location_id=91 parent_frame_id=150}
152 {file_location_id=92 parent_frame_id=150}
153 {file_location_id=93 parent_frame_id=150}
154 {file_location_id=81 parent_frame_id=0}
155 {file_location_id=82 parent_frame_id=154}
156 {file_location_id=83 parent_frame_id=155}
157 {file_location_id=84 parent_frame_id=156}
158 {file_location_id=85 parent_frame_id=157}
159 {file_location_id=86 parent_frame_id=158}
160 {file_location_id=87 parent_frame_id=159}
161 {file_location_id=90 parent_frame_id=160}
162 {file_location_id=94 parent_frame_id=161}
163 {file_location_id=95 parent_frame_id=162}
164 {file_location_id=96 parent_frame_id=162}
165 {file_location_id=94 parent_frame_id=150}
166 {file_location_id=97 parent_frame_id=162}
167 {file_location_id=98 parent_frame_id=162}
168 {file_location_id=99 parent_frame_id=162}
169 {file_location_id=100 parent_frame_id=162}
170 {file_location_id=101 parent_frame_id=162}
171 {file_location_id=102 parent_frame_id=162}
172 {file_location_id=103 parent_frame_id=162}
173 {file_location_id=104 parent_frame_id=162}
174 {file_location_id=105 parent_frame_id=162}
175 {file_location_id=106 parent_frame_id=162}
176 {file_location_id=107 parent_frame_id=150}
177 {file_location_id=108 parent_frame_id=150}
178 {file_location_id=109 parent_frame_id=150}
179 {file_location_id=110 parent_frame_id=150}
180 {file_location_id=111 parent_frame_id=150}
181 {file_location_id=112 parent_frame_id=150}
182 {file_location_id=113 parent_frame_id=150}
183 {file_location_id=114 parent_frame_id=150}
184 {file_location_id=115 parent_frame_id=129}
185 {file_location_id=116 parent_frame_id=5}
186 {file_location_id=117 parent_frame_id=185}
187 {file_location_id=118 parent_frame_id=186}
188 {file_location_id=76 parent_frame_id=57}
189 {file_location_id=80 parent_frame_id=188}
190 {file_location_id=81 parent_frame_id=189}
191 {file_location_id=82 parent_frame_id=190}
192 {file_location_id=83 parent_frame_id=191}
193 {file_location_id=119 parent_frame_id=56}
194 {file_location_id=120 parent_frame_id=193}
195 {file_location_id=121 parent_frame_id=194}
196 {file_location_id=122 parent_frame_id=195}
197 {file_location_id=123 parent_frame_id=196}
198 {file_location_id=124 parent_frame_id=197}
199 {file_location_id=125 parent_frame_id=197}
200 {file_location_id=119 parent_frame_id=5}
201 {file_location_id=120 parent_frame_id=200}
202 {file_location_id=121 parent_frame_id=201}
203 {file_location_id=126 parent_frame_id=202}
204 {file_location_id=127 parent_frame_id=203}
205 {file_location_id=128 parent_frame_id=203}
206 {file_location_id=129 parent_frame_id=203}
207 {file_location_id=130 parent_frame_id=202}
208 {file_location_id=119 parent_frame_id=13}
209 {file_location_id=120 parent_frame_id=208}
210 {file_location_id=121 parent_frame_id=209}
211 {file_location_id=131 parent_frame_id=210}
212 {file_location_id=132 parent_frame_id=211}
213 {file_location_id=133 parent_frame_id=212}
214 {file_location_id=134 parent_frame_id=213}
215 {file_location_id=131 parent_frame_id=195}
216 {file_location_id=132 parent_frame_id=215}
217 {file_location_id=135 parent_frame_id=216}
218 {file_location_id=136 parent_frame_id=202}
219 {file_location_id=137 parent_frame_id=202}
220 {file_location_id=138 parent_frame_id=219}
221 {file_location_id=139 parent_frame_id=219}
222 {file_location_id=140 parent_frame_id=202}
223 {file_location_id=141 parent_frame_id=222}
224 {file_location_id=142 parent_frame_id=222}
225 {file_location_id=143 parent_frame_id=202}
226 {file_location_id=144 parent_frame_id=225}
227 {file_location_id=145 parent_frame_id=186}
228 {file_location_id=146 parent_frame_id=216}


%region_19.23 (psum.6: f32[], psum.7: f32[]) -> f32[] {
  %psum.6 = f32[]{:T(128)} parameter(0), metadata={op_name="psum"}
  %psum.7 = f32[]{:T(128)} parameter(1), metadata={op_name="psum"}
  ROOT %add.382 = f32[]{:T(128)} add(%psum.6, %psum.7), metadata={op_name="add" stack_frame_id=184}, backend_config={"flag_configs":[],"scoped_memory_configs":[],"used_scoped_memory_configs":[],"aliasing_operands":{"lists":[]}}
}

%fused_computation (param_0.2: bf16[128256,4096], param_1.7: s32[32768]) -> bf16[32768,4096] {
  %param_0.2 = bf16[128256,4096]{1,0:T(8,128)(2,1)} parameter(0)
  %param_1.7 = s32[32768]{0:T(1024)S(1)} parameter(1)
  %custom-call.6 = s32[32768]{0:T(1024)} custom-call(%param_1.7), custom_call_target="AssumeGatherIndicesInBound", operand_layout_constraints={s32[32768]{0:T(1024)}}, metadata={op_name="jit(train_step)/train_step/forward_backward/jvp()/gather" stack_frame_id=9}
  %slice.186 = s32[32768]{0:T(1024)} slice(%custom-call.6), slice={[0:32768]}, metadata={op_name="jit(train_step)/train_step/forward_backward/jvp()/gather" stack_frame_id=9}
  %reshape.489 = s32[4,8192]{1,0:T(4,128)} reshape(%slice.186), metadata={op_name="jit(train_step)/train_step/forward_backward/jvp()/broadcast_in_dim" stack_frame_id=9}
  %transpose.163 = s32[4,8192]{1,0:T(4,128)} transpose(%reshape.489), dimensions={0,1}, metadata={op_name="jit(train_step)/train_step/forward_backward/jvp()/broadcast_in_dim" stack_frame_id=9}
  %gather.4 = bf16[4,8192,4096]{2,1,0:T(8,128)(2,1)} gather(%param_0.2, %transpose.163), offset_dims={2}, collapsed_slice_dims={0}, start_index_map={0}, index_vector_dim=2, slice_sizes={1,4096}, metadata={op_name="jit(train_step)/train_step/forward_backward/jvp()/gather" stack_frame_id=9}
  %transpose.162 = bf16[4,8192,4096]{2,1,0:T(8,128)(2,1)} transpose(%gather.4), dimensions={0,1,2}, metadata={op_name="jit(train_step)/train_step/forward_backward/jvp()/gather" stack_frame_id=9}
  ROOT %reshape.488 = bf16[32768,4096]{1,0:T(8,128)(2,1)} reshape(%transpose.162), metadata={op_name="jit(train_step)/train_step/forward_backward/jvp()/gather" stack_frame_id=9}
}

%compare (name: s32[], name.1: s32[], name.2: s32[], name.3: s32[]) -> pred[] {
  %name = s32[] parameter(0)
  %name.1 = s32[] parameter(1)
  %name.2 = s32[] parameter(2)
  %name.3 = s32[] parameter(3)
  %compare.28 = pred[]{:S(6)} compare(%name, %name.1), direction=EQ, backend_config={"flag_configs":[],"scoped_memory_configs":[],"used_scoped_memory_configs":[],"aliasing_operands":{"lists":[]}}
  %compare.29 = pred[]{:S(6)} compare(%name.2, %name.3), direction=LT, backend_config={"flag_configs":[],"scoped_memory_configs":[],"used_scoped_memory_configs":[],"aliasing_operands":{"lists":[]}}
  %compare.30 = pred[]{:S(6)} compare(%name, %name.1), direction=LT, backend_config={"flag_configs":[],"scoped_memory_configs":[],"used_scoped_memory_configs":[],"aliasing_operands":{"lists":[]}}
  ROOT %select.32 = pred[] select(%compare.28, %compare.29, %compare.30), backend_config={"flag_configs":[],"scoped_memory_configs":[],"used_scoped_memory_configs":[],"aliasing_operands":{"lists":[]}}
}

%fused_computation.229 (param_0.580: f32[4096,129024], param_1.624: f32[]) -> f32[4096,128256] {
  %param_0.580 = f32[4096,129024]{0,1:T(8,128)} parameter(0)
  %slice.210 = f32[4096,128256]{0,1:T(8,128)} slice(%param_0.580), slice={[0:4096], [0:128256]}, metadata={op_name="jit(train_step)/train_step/forward_backward/transpose(train_step)/forward_backward/jvp()/shard_map/tokamax:{\"op\":{\"__type\":\"tokamax._src.ops.linear_softmax_cross_entropy_loss.chunked_xla.ChunkedXlaLinearSoftmaxCrossEntropyLossVjp\",\"config\":{\"b_block_size\":1024,\"v_block_size\":2048},\"vjp\":null},\"arguments\":{\"dout\":\"f32[]\",\"labels\":\"i32[32768]\",\"out\":\"f32[]\",\"reduction\":\"sum\",\"residuals\":[\"f32[32768]\"],\"return_residuals\":false,\"w\":\"f32[4096,128256]\",\"x\":\"f32[32768,4096]\"}}/jit(linear_softmax_cross_entropy_loss_bwd_chunked_xla)/slice" stack_frame_id=192}
  %param_1.624 = f32[]{:T(128)} parameter(1)
  %mul.1540 = f32[4096,128256]{0,1:T(8,128)} broadcast(%param_1.624), dimensions={}, metadata={op_name="jit(train_step)/train_step/forward_backward/transpose(train_step)/forward_backward/jvp()/shard_map/tokamax:{\"op\":{\"__type\":\"tokamax._src.ops.linear_softmax_cross_entropy_loss.chunked_xla.ChunkedXlaLinearSoftmaxCrossEntropyLossVjp\",\"config\":{\"b_block_size\":1024,\"v_block_size\":2048},\"vjp\":null},\"arguments\":{\"dout\":\"f32[]\",\"labels\":\"i32[32768]\",\"out\":\"f32[]\",\"reduction\":\"sum\",\"residuals\":[\"f32[32768]\"],\"return_residuals\":false,\"w\":\"f32[4096,128256]\",\"x\":\"f32[32768,4096]\"}}/jit(linear_softmax_cross_entropy_loss_bwd_chunked_xla)/mul" stack_frame_id=192}
  ROOT %mul.1539 = f32[4096,128256]{0,1:T(8,128)} multiply(%slice.210, %mul.1540), metadata={op_name="jit(train_step)/train_step/forward_backward/transpose(train_step)/forward_backward/jvp()/shard_map/tokamax:{\"op\":{\"__type\":\"tokamax._src.ops.linear_softmax_cross_entropy_loss.chunked_xla.ChunkedXlaLinearSoftmaxCrossEntropyLossVjp\",\"config\":{\"b_block_size\":1024,\"v_block_size\":2048},\"vjp\":null},\"arguments\":{\"dout\":\"f32[]\",\"labels\":\"i32[32768]\",\"out\":\"f32[]\",\"reduction\":\"sum\",\"residuals\":[\"f32[32768]\"],\"return_residuals\":false,\"w\":\"f32[4096,128256]\",\"x\":\"f32[32768,4096]\"}}/jit(linear_softmax_cross_entropy_loss_bwd_chunked_xla)/mul" stack_frame_id=192}
}

%fused_computation.230 (param_0.846: bf16[32,14336,512], param_1.1008: f32[], param_2.786: bf16[], param_3.479: bf16[32,14336,512], param_4.309: bf16[32,14336,512], param_5.259: f32[32,14336,512], param_6.230: bf16[32,14336,512], param_7.122: bf16[32,14336,512], param_8.23: bf16[32,14336,512], param_9.6: f32[32,14336,512]) -> (bf16[32,14336,512], bf16[32,14336,512], f32[32,14336,512], bf16[32,14336,512], bf16[32,14336,512], /*index=5*/f32[32,14336,512]) {
  %param_0.846 = bf16[32,14336,512]{2,1,0:T(8,128)(2,1)} parameter(0)
  %convert_element_type.707 = f32[32,14336,512]{2,1,0:T(8,128)} convert(%param_0.846), metadata={op_name="jit(train_step)/train_step/optimizer/convert_element_type" stack_frame_id=187}
  %param_4.309 = bf16[32,14336,512]{2,1,0:T(8,128)(2,1)} parameter(4)
  %constant.1448.clone.1 = bf16[]{:T(256)} constant(0.1001)
  %broadcast.536.clone.1 = bf16[32,14336,512]{2,1,0:T(8,128)(2,1)} broadcast(%constant.1448.clone.1), dimensions={}, metadata={op_name="broadcast.67"}
  %mul.1698.clone.1 = bf16[32,14336,512]{2,1,0:T(8,128)(2,1)} multiply(%param_4.309, %broadcast.536.clone.1), metadata={op_name="jit(train_step)/train_step/optimizer/mul" stack_frame_id=198}
  %convert_element_type.811.clone.1 = f32[32,14336,512]{2,1,0:T(8,128)} convert(%mul.1698.clone.1), metadata={op_name="jit(train_step)/train_step/optimizer/convert_element_type" stack_frame_id=198}
  %param_5.259 = f32[32,14336,512]{2,1,0:T(8,128)} parameter(5)
  %constant.1447.clone.1 = f32[]{:T(128)} constant(0.9)
  %broadcast.535.clone.1 = f32[32,14336,512]{2,1,0:T(8,128)} broadcast(%constant.1447.clone.1), dimensions={}, metadata={op_name="broadcast.66"}
  %mul.1697.clone.1 = f32[32,14336,512]{2,1,0:T(8,128)} multiply(%param_5.259, %broadcast.535.clone.1), metadata={op_name="jit(train_step)/train_step/optimizer/mul" stack_frame_id=199}
  %add.795.clone.1 = f32[32,14336,512]{2,1,0:T(8,128)} add(%convert_element_type.811.clone.1, %mul.1697.clone.1), metadata={op_name="jit(train_step)/train_step/optimizer/add" stack_frame_id=198}
  %param_1.1008 = f32[]{:T(128)S(6)} parameter(1)
  %div.299 = f32[32,14336,512]{2,1,0:T(8,128)} broadcast(%param_1.1008), dimensions={}, metadata={op_name="jit(train_step)/train_step/optimizer/div" stack_frame_id=207}
  %integer_pow.58.clone.1 = bf16[32,14336,512]{2,1,0:T(8,128)(2,1)} multiply(%param_4.309, %param_4.309), metadata={op_name="jit(train_step)/train_step/optimizer/integer_pow" stack_frame_id=214}
  %constant.1446.clone.1 = bf16[]{:T(256)} constant(0.0009995)
  %broadcast.534.clone.1 = bf16[32,14336,512]{2,1,0:T(8,128)(2,1)} broadcast(%constant.1446.clone.1), dimensions={}, metadata={op_name="broadcast.59"}
  %mul.1696.clone.1 = bf16[32,14336,512]{2,1,0:T(8,128)(2,1)} multiply(%integer_pow.58.clone.1, %broadcast.534.clone.1), metadata={op_name="jit(train_step)/train_step/optimizer/mul" stack_frame_id=217}
  %param_3.479 = bf16[32,14336,512]{2,1,0:T(8,128)(2,1)} parameter(3)
  %add.794.clone.1 = bf16[32,14336,512]{2,1,0:T(8,128)(2,1)} add(%mul.1696.clone.1, %param_3.479), metadata={op_name="jit(train_step)/train_step/optimizer/add" stack_frame_id=217}
  %param_2.786 = bf16[]{:T(256)S(6)} parameter(2)
  %div.307 = bf16[32,14336,512]{2,1,0:T(8,128)(2,1)} broadcast(%param_2.786), dimensions={}, metadata={op_name="jit(train_step)/train_step/optimizer/div" stack_frame_id=218}
  %div.297 = bf16[32,14336,512]{2,1,0:T(8,128)(2,1)} divide(%add.794.clone.1, %div.307), metadata={op_name="jit(train_step)/train_step/optimizer/div" stack_frame_id=218}
  %sqrt.39 = bf16[32,14336,512]{2,1,0:T(8,128)(2,1)} sqrt(%div.297), metadata={op_name="jit(train_step)/train_step/optimizer/sqrt" stack_frame_id=220}
  %constant.1360 = bf16[]{:T(256)} constant(1.001e-08)
  %broadcast.454 = bf16[32,14336,512]{2,1,0:T(8,128)(2,1)} broadcast(%constant.1360), dimensions={}, metadata={op_name="broadcast.54"}
  %add.710 = bf16[32,14336,512]{2,1,0:T(8,128)(2,1)} add(%sqrt.39, %broadcast.454), metadata={op_name="jit(train_step)/train_step/optimizer/add" stack_frame_id=220}
  %convert_element_type.705 = f32[32,14336,512]{2,1,0:T(8,128)} convert(%add.710), metadata={op_name="jit(train_step)/train_step/optimizer/convert_element_type" stack_frame_id=221}
  %multiply.171 = f32[32,14336,512]{2,1,0:T(8,128)} multiply(%div.299, %convert_element_type.705), metadata={op_name="multiply.37"}
  %div.294 = f32[32,14336,512]{2,1,0:T(8,128)} divide(%add.795.clone.1, %multiply.171), metadata={op_name="jit(train_step)/train_step/optimizer/div" stack_frame_id=221}
  %constant.1425 = bf16[]{:T(256)} constant(0), metadata={op_name="jit(train_step)/train_step/forward_backward/transpose(jvp())/scatter-add" stack_frame_id=9}
  %broadcast.460 = bf16[32,14336,512]{2,1,0:T(8,128)(2,1)} broadcast(%constant.1425), dimensions={}, metadata={op_name="broadcast.75"}
  %mul.1575 = bf16[32,14336,512]{2,1,0:T(8,128)(2,1)} multiply(%param_0.846, %broadcast.460), metadata={op_name="jit(train_step)/train_step/optimizer/mul" stack_frame_id=223}
  %convert_element_type.704 = f32[32,14336,512]{2,1,0:T(8,128)} convert(%mul.1575), metadata={op_name="jit(train_step)/train_step/optimizer/convert_element_type" stack_frame_id=224}
  %add.702 = f32[32,14336,512]{2,1,0:T(8,128)} add(%div.294, %convert_element_type.704), metadata={op_name="jit(train_step)/train_step/optimizer/add" stack_frame_id=224}
  %constant.1347 = f32[]{:T(128)} constant(-1e-05)
  %broadcast.450 = f32[32,14336,512]{2,1,0:T(8,128)} broadcast(%constant.1347), dimensions={}, metadata={op_name="broadcast.49"}
  %mul.1541 = f32[32,14336,512]{2,1,0:T(8,128)} multiply(%add.702, %broadcast.450), metadata={op_name="jit(train_step)/train_step/optimizer/mul" stack_frame_id=226}
  %add.701 = f32[32,14336,512]{2,1,0:T(8,128)} add(%convert_element_type.707, %mul.1541), metadata={op_name="jit(train_step)/train_step/optimizer/add" stack_frame_id=187}
  %convert_element_type.703 = bf16[32,14336,512]{2,1,0:T(8,128)(2,1)} convert(%add.701), metadata={op_name="jit(train_step)/train_step/optimizer/convert_element_type" stack_frame_id=227}
  %param_6.230 = bf16[32,14336,512]{2,1,0:T(8,128)(2,1)} parameter(6)
  %convert_element_type.712.clone.1 = f32[32,14336,512]{2,1,0:T(8,128)} convert(%param_6.230), metadata={op_name="jit(train_step)/train_step/optimizer/convert_element_type" stack_frame_id=187}
  %param_8.23 = bf16[32,14336,512]{2,1,0:T(8,128)(2,1)} parameter(8)
  %mul.1701.clone.1.clone.1 = bf16[32,14336,512]{2,1,0:T(8,128)(2,1)} multiply(%param_8.23, %broadcast.536.clone.1), metadata={op_name="jit(train_step)/train_step/optimizer/mul" stack_frame_id=198}
  %convert_element_type.812.clone.1.clone.1 = f32[32,14336,512]{2,1,0:T(8,128)} convert(%mul.1701.clone.1.clone.1), metadata={op_name="jit(train_step)/train_step/optimizer/convert_element_type" stack_frame_id=198}
  %param_9.6 = f32[32,14336,512]{2,1,0:T(8,128)} parameter(9)
  %mul.1700.clone.1.clone.1 = f32[32,14336,512]{2,1,0:T(8,128)} multiply(%param_9.6, %broadcast.535.clone.1), metadata={op_name="jit(train_step)/train_step/optimizer/mul" stack_frame_id=199}
  %add.797.clone.1.clone.1 = f32[32,14336,512]{2,1,0:T(8,128)} add(%convert_element_type.812.clone.1.clone.1, %mul.1700.clone.1.clone.1), metadata={op_name="jit(train_step)/train_step/optimizer/add" stack_frame_id=198}
  %integer_pow.59.clone.1.clone.1 = bf16[32,14336,512]{2,1,0:T(8,128)(2,1)} multiply(%param_8.23, %param_8.23), metadata={op_name="jit(train_step)/train_step/optimizer/integer_pow" stack_frame_id=214}
  %mul.1699.clone.1.clone.1 = bf16[32,14336,512]{2,1,0:T(8,128)(2,1)} multiply(%integer_pow.59.clone.1.clone.1, %broadcast.534.clone.1), metadata={op_name="jit(train_step)/train_step/optimizer/mul" stack_frame_id=217}
  %param_7.122 = bf16[32,14336,512]{2,1,0:T(8,128)(2,1)} parameter(7)
  %add.796.clone.1.clone.1 = bf16[32,14336,512]{2,1,0:T(8,128)(2,1)} add(%mul.1699.clone.1.clone.1, %param_7.122), metadata={op_name="jit(train_step)/train_step/optimizer/add" stack_frame_id=217}
  %div.298.clone.1 = bf16[32,14336,512]{2,1,0:T(8,128)(2,1)} divide(%add.796.clone.1.clone.1, %div.307), metadata={op_name="jit(train_step)/train_step/optimizer/div" stack_frame_id=218}
  %sqrt.40.clone.1 = bf16[32,14336,512]{2,1,0:T(8,128)(2,1)} sqrt(%div.298.clone.1), metadata={op_name="jit(train_step)/train_step/optimizer/sqrt" stack_frame_id=220}
  %add.712.clone.1 = bf16[32,14336,512]{2,1,0:T(8,128)(2,1)} add(%sqrt.40.clone.1, %broadcast.454), metadata={op_name="jit(train_step)/train_step/optimizer/add" stack_frame_id=220}
  %convert_element_type.710.clone.1 = f32[32,14336,512]{2,1,0:T(8,128)} convert(%add.712.clone.1), metadata={op_name="jit(train_step)/train_step/optimizer/convert_element_type" stack_frame_id=221}
  %multiply.172.clone.1 = f32[32,14336,512]{2,1,0:T(8,128)} multiply(%div.299, %convert_element_type.710.clone.1), metadata={op_name="multiply.36"}
  %div.295.clone.1 = f32[32,14336,512]{2,1,0:T(8,128)} divide(%add.797.clone.1.clone.1, %multiply.172.clone.1), metadata={op_name="jit(train_step)/train_step/optimizer/div" stack_frame_id=221}
  %mul.1578.clone.1 = bf16[32,14336,512]{2,1,0:T(8,128)(2,1)} multiply(%param_6.230, %broadcast.460), metadata={op_name="jit(train_step)/train_step/optimizer/mul" stack_frame_id=223}
  %convert_element_type.709.clone.1 = f32[32,14336,512]{2,1,0:T(8,128)} convert(%mul.1578.clone.1), metadata={op_name="jit(train_step)/train_step/optimizer/convert_element_type" stack_frame_id=224}
  %add.705.clone.1 = f32[32,14336,512]{2,1,0:T(8,128)} add(%div.295.clone.1, %convert_element_type.709.clone.1), metadata={op_name="jit(train_step)/train_step/optimizer/add" stack_frame_id=224}
  %mul.1543.clone.1 = f32[32,14336,512]{2,1,0:T(8,128)} multiply(%add.705.clone.1, %broadcast.450), metadata={op_name="jit(train_step)/train_step/optimizer/mul" stack_frame_id=226}
  %add.704.clone.1 = f32[32,14336,512]{2,1,0:T(8,128)} add(%convert_element_type.712.clone.1, %mul.1543.clone.1), metadata={op_name="jit(train_step)/train_step/optimizer/add" stack_frame_id=187}
  %convert_element_type.708.clone.1 = bf16[32,14336,512]{2,1,0:T(8,128)(2,1)} convert(%add.704.clone.1), metadata={op_name="jit(train_step)/train_step/optimizer/convert_element_type" stack_frame_id=227}
  ROOT %tuple.254 = (bf16[32,14336,512]{2,1,0:T(8,128)(2,1)}, bf16[32,14336,512]{2,1,0:T(8,128)(2,1)}, f32[32,14336,512]{2,1,0:T(8,128)}, bf16[32,14336,512]{2,1,0:T(8,128)(2,1)}, bf16[32,14336,512]{2,1,0:T(8,128)(2,1)}, /*index=5*/f32[32,14336,512]{2,1,0:T(8,128)}) tuple(%convert_element_type.703, %add.794.clone.1, %add.795.clone.1, %convert_element_type.708.clone.1, %add.796.clone.1.clone.1, /*index=5*/%add.797.clone.1.clone.1)
}

%fused_computation.234 (param_0.852: bf16[32,512,14336], param_1.1014: f32[], param_2.790: bf16[], param_3.483: bf16[32,512,14336], param_4.315: bf16[32,512,14336], param_5.269: f32[32,512,14336]) -> (bf16[32,512,14336], bf16[32,512,14336], f32[32,512,14336]) {
  %param_0.852 = bf16[32,512,14336]{2,1,0:T(8,128)(2,1)} parameter(0)
  %convert_element_type.717 = f32[32,512,14336]{2,1,0:T(8,128)} convert(%param_0.852), metadata={op_name="jit(train_step)/train_step/optimizer/convert_element_type" stack_frame_id=187}
  %param_4.315 = bf16[32,512,14336]{2,1,0:T(8,128)(2,1)} parameter(4)
  %constant.1454.clone.1 = bf16[]{:T(256)} constant(0.1001)
  %mul.1707.clone.1 = bf16[32,512,14336]{2,1,0:T(8,128)(2,1)} broadcast(%constant.1454.clone.1), dimensions={}, metadata={op_name="jit(train_step)/train_step/optimizer/mul" stack_frame_id=198}
  %mul.1706.clone.1 = bf16[32,512,14336]{2,1,0:T(8,128)(2,1)} multiply(%param_4.315, %mul.1707.clone.1), metadata={op_name="jit(train_step)/train_step/optimizer/mul" stack_frame_id=198}
  %convert_element_type.813.clone.1 = f32[32,512,14336]{2,1,0:T(8,128)} convert(%mul.1706.clone.1), metadata={op_name="jit(train_step)/train_step/optimizer/convert_element_type" stack_frame_id=198}
  %param_5.269 = f32[32,512,14336]{2,1,0:T(8,128)} parameter(5)
  %constant.1453.clone.1 = f32[]{:T(128)} constant(0.9)
  %mul.1705.clone.1 = f32[32,512,14336]{2,1,0:T(8,128)} broadcast(%constant.1453.clone.1), dimensions={}, metadata={op_name="jit(train_step)/train_step/optimizer/mul" stack_frame_id=199}
  %mul.1704.clone.1 = f32[32,512,14336]{2,1,0:T(8,128)} multiply(%param_5.269, %mul.1705.clone.1), metadata={op_name="jit(train_step)/train_step/optimizer/mul" stack_frame_id=199}
  %add.799.clone.1 = f32[32,512,14336]{2,1,0:T(8,128)} add(%convert_element_type.813.clone.1, %mul.1704.clone.1), metadata={op_name="jit(train_step)/train_step/optimizer/add" stack_frame_id=198}
  %param_1.1014 = f32[]{:T(128)S(6)} parameter(1)
  %div.302 = f32[32,512,14336]{2,1,0:T(8,128)} broadcast(%param_1.1014), dimensions={}, metadata={op_name="jit(train_step)/train_step/optimizer/div" stack_frame_id=207}
  %integer_pow.60.clone.1 = bf16[32,512,14336]{2,1,0:T(8,128)(2,1)} multiply(%param_4.315, %param_4.315), metadata={op_name="jit(train_step)/train_step/optimizer/integer_pow" stack_frame_id=214}
  %constant.1452.clone.1 = bf16[]{:T(256)} constant(0.0009995)
  %mul.1703.clone.1 = bf16[32,512,14336]{2,1,0:T(8,128)(2,1)} broadcast(%constant.1452.clone.1), dimensions={}, metadata={op_name="jit(train_step)/train_step/optimizer/mul" stack_frame_id=217}
  %mul.1702.clone.1 = bf16[32,512,14336]{2,1,0:T(8,128)(2,1)} multiply(%integer_pow.60.clone.1, %mul.1703.clone.1), metadata={op_name="jit(train_step)/train_step/optimizer/mul" stack_frame_id=217}
  %param_3.483 = bf16[32,512,14336]{2,1,0:T(8,128)(2,1)} parameter(3)
  %add.798.clone.1 = bf16[32,512,14336]{2,1,0:T(8,128)(2,1)} add(%mul.1702.clone.1, %param_3.483), metadata={op_name="jit(train_step)/train_step/optimizer/add" stack_frame_id=217}
  %param_2.790 = bf16[]{:T(256)S(6)} parameter(2)
  %div.309 = bf16[32,512,14336]{2,1,0:T(8,128)(2,1)} broadcast(%param_2.790), dimensions={}, metadata={op_name="jit(train_step)/train_step/optimizer/div" stack_frame_id=218}
  %div.301 = bf16[32,512,14336]{2,1,0:T(8,128)(2,1)} divide(%add.798.clone.1, %div.309), metadata={op_name="jit(train_step)/train_step/optimizer/div" stack_frame_id=218}
  %sqrt.41 = bf16[32,512,14336]{2,1,0:T(8,128)(2,1)} sqrt(%div.301), metadata={op_name="jit(train_step)/train_step/optimizer/sqrt" stack_frame_id=220}
  %constant.1365 = bf16[]{:T(256)} constant(1.001e-08)
  %add.728 = bf16[32,512,14336]{2,1,0:T(8,128)(2,1)} broadcast(%constant.1365), dimensions={}, metadata={op_name="jit(train_step)/train_step/optimizer/add" stack_frame_id=220}
  %add.714 = bf16[32,512,14336]{2,1,0:T(8,128)(2,1)} add(%sqrt.41, %add.728), metadata={op_name="jit(train_step)/train_step/optimizer/add" stack_frame_id=220}
  %convert_element_type.715 = f32[32,512,14336]{2,1,0:T(8,128)} convert(%add.714), metadata={op_name="jit(train_step)/train_step/optimizer/convert_element_type" stack_frame_id=221}
  %multiply.173 = f32[32,512,14336]{2,1,0:T(8,128)} multiply(%div.302, %convert_element_type.715), metadata={op_name="multiply.35"}
  %div.296 = f32[32,512,14336]{2,1,0:T(8,128)} divide(%add.799.clone.1, %multiply.173), metadata={op_name="jit(train_step)/train_step/optimizer/div" stack_frame_id=221}
  %constant.1423 = bf16[]{:T(256)} constant(0), metadata={op_name="jit(train_step)/train_step/forward_backward/transpose(jvp())/scatter-add" stack_frame_id=9}
  %broadcast.462 = bf16[32,512,14336]{2,1,0:T(8,128)(2,1)} broadcast(%constant.1423), dimensions={}, metadata={op_name="broadcast.76"}
  %mul.1582 = bf16[32,512,14336]{2,1,0:T(8,128)(2,1)} multiply(%param_0.852, %broadcast.462), metadata={op_name="jit(train_step)/train_step/optimizer/mul" stack_frame_id=223}
  %convert_element_type.714 = f32[32,512,14336]{2,1,0:T(8,128)} convert(%mul.1582), metadata={op_name="jit(train_step)/train_step/optimizer/convert_element_type" stack_frame_id=224}
  %add.708 = f32[32,512,14336]{2,1,0:T(8,128)} add(%div.296, %convert_element_type.714), metadata={op_name="jit(train_step)/train_step/optimizer/add" stack_frame_id=224}
  %constant.1352 = f32[]{:T(128)} constant(-1e-05)
  %mul.1581 = f32[32,512,14336]{2,1,0:T(8,128)} broadcast(%constant.1352), dimensions={}, metadata={op_name="jit(train_step)/train_step/optimizer/mul" stack_frame_id=226}
  %mul.1545 = f32[32,512,14336]{2,1,0:T(8,128)} multiply(%add.708, %mul.1581), metadata={op_name="jit(train_step)/train_step/optimizer/mul" stack_frame_id=226}
  %add.707 = f32[32,512,14336]{2,1,0:T(8,128)} add(%convert_element_type.717, %mul.1545), metadata={op_name="jit(train_step)/train_step/optimizer/add" stack_frame_id=187}
  %convert_element_type.713 = bf16[32,512,14336]{2,1,0:T(8,128)(2,1)} convert(%add.707), metadata={op_name="jit(train_step)/train_step/optimizer/convert_element_type" stack_frame_id=227}
  ROOT %tuple.216 = (bf16[32,512,14336]{2,1,0:T(8,128)(2,1)}, bf16[32,512,14336]{2,1,0:T(8,128)(2,1)}, f32[32,512,14336]{2,1,0:T(8,128)}) tuple(%convert_element_type.713, %add.798.clone.1, %add.799.clone.1)
}

%region_37.44 (reduce_sum.298: f32[], reduce_sum.299: f32[]) -> f32[] {
  %reduce_sum.298 = f32[]{:T(128)} parameter(0), metadata={op_name="jit(train_step)/train_step/forward_backward/transpose(jvp())/reduce_sum"}
  %reduce_sum.299 = f32[]{:T(128)} parameter(1), metadata={op_name="jit(train_step)/train_step/forward_backward/transpose(jvp())/reduce_sum"}
  ROOT %reduce_sum.300 = f32[]{:T(128)} add(%reduce_sum.298, %reduce_sum.299), metadata={op_name="jit(train_step)/train_step/forward_backward/transpose(jvp())/reduce_sum" stack_frame_id=122}, backend_config={"flag_configs":[],"scoped_memory_configs":[],"used_scoped_memory_configs":[],"aliasing_operands":{"lists":[]}}
}

%region_21.26 (reduce_sum.251: f32[], reduce_sum.252: f32[]) -> f32[] {
  %reduce_sum.251 = f32[]{:T(128)} parameter(0), metadata={op_name="jit(train_step)/train_step/forward_backward/transpose(jvp())/reduce_sum"}
  %reduce_sum.252 = f32[]{:T(128)} parameter(1), metadata={op_name="jit(train_step)/train_step/forward_backward/transpose(jvp())/reduce_sum"}
  ROOT %reduce_sum.253 = f32[]{:T(128)} add(%reduce_sum.251, %reduce_sum.252), metadata={op_name="jit(train_step)/train_step/forward_backward/transpose(jvp())/reduce_sum" stack_frame_id=122}, backend_config={"flag_configs":[],"scoped_memory_configs":[],"used_scoped_memory_configs":[],"aliasing_operands":{"lists":[]}}
}

%fused_computation.244 (param_0.826: f32[4,8192,4096], param_1.988: bf16[4,8192,4096], param_2.769: f32[4,8192], param_3.467: f32[4096]) -> (f32[4096], f32[4,8192]) {
  %param_1.988 = bf16[4,8192,4096]{2,1,0:T(8,128)(2,1)} parameter(1)
  %convert_element_type.730 = f32[4,8192,4096]{2,1,0:T(8,128)} convert(%param_1.988), metadata={op_name="jit(train_step)/train_step/forward_backward/jvp()/convert_element_type" stack_frame_id=118}
  %param_2.769 = f32[4,8192]{1,0:T(4,128)S(1)} parameter(2)
  %mul.1600 = f32[4,8192,4096]{2,1,0:T(8,128)} broadcast(%param_2.769), dimensions={0,1}, metadata={op_name="jit(train_step)/train_step/forward_backward/jvp()/mul" stack_frame_id=122}
  %mul.1564 = f32[4,8192,4096]{2,1,0:T(8,128)} multiply(%convert_element_type.730, %mul.1600), metadata={op_name="jit(train_step)/train_step/forward_backward/jvp()/mul" stack_frame_id=122}
  %param_0.826 = f32[4,8192,4096]{2,1,0:T(8,128)} parameter(0)
  %mul.1563 = f32[4,8192,4096]{2,1,0:T(8,128)} multiply(%mul.1564, %param_0.826), metadata={op_name="jit(train_step)/train_step/forward_backward/transpose(jvp())/mul" stack_frame_id=122}
  %constant.1414 = f32[]{:T(128)} constant(0)
  %reduce.61 = f32[4096]{0:T(1024)} reduce(%mul.1563, %constant.1414), dimensions={0,1}, to_apply=%region_37.44, metadata={op_name="jit(train_step)/train_step/forward_backward/transpose(jvp())/reduce_sum" stack_frame_id=122}
  %param_3.467 = f32[4096]{0:T(1024)S(1)} parameter(3)
  %mul.1597.clone.1 = f32[4,8192,4096]{2,1,0:T(8,128)} broadcast(%param_3.467), dimensions={2}, metadata={op_name="jit(train_step)/train_step/forward_backward/jvp()/mul" stack_frame_id=122}
  %mul.1573.clone.1 = f32[4,8192,4096]{2,1,0:T(8,128)} multiply(%param_0.826, %mul.1597.clone.1), metadata={op_name="jit(train_step)/train_step/forward_backward/transpose(jvp())/mul" stack_frame_id=122}
  %mul.1568.clone.1 = f32[4,8192,4096]{2,1,0:T(8,128)} multiply(%convert_element_type.730, %mul.1573.clone.1), metadata={op_name="jit(train_step)/train_step/forward_backward/transpose(jvp())/mul" stack_frame_id=122}
  %reduce.63.clone.1 = f32[4,8192]{1,0:T(4,128)S(1)} reduce(%mul.1568.clone.1, %constant.1414), dimensions={2}, to_apply=%region_21.26, metadata={op_name="jit(train_step)/train_step/forward_backward/transpose(jvp())/reduce_sum" stack_frame_id=122}
  ROOT %tuple.188 = (f32[4096]{0:T(1024)}, f32[4,8192]{1,0:T(4,128)S(1)}) tuple(%reduce.61, %reduce.63.clone.1)
}

%fused_computation.245 (param_0.671: bf16[4,8192,4096], param_1.739: f32[4,8192,4096], param_2.541: f32[4,8192], param_3.294: f32[4096], param_4.141: f32[4,8192]) -> bf16[4,8192,4096] {
  %param_1.739 = f32[4,8192,4096]{2,1,0:T(8,128)} parameter(1)
  %param_3.294 = f32[4096]{0:T(1024)S(1)} parameter(3)
  %mul.1598 = f32[4,8192,4096]{2,1,0:T(8,128)} broadcast(%param_3.294), dimensions={2}, metadata={op_name="jit(train_step)/train_step/forward_backward/jvp()/mul" stack_frame_id=122}
  %mul.1574 = f32[4,8192,4096]{2,1,0:T(8,128)} multiply(%param_1.739, %mul.1598), metadata={op_name="jit(train_step)/train_step/forward_backward/transpose(jvp())/mul" stack_frame_id=122}
  %param_4.141 = f32[4,8192]{1,0:T(4,128)S(1)} parameter(4)
  %mul.1601 = f32[4,8192,4096]{2,1,0:T(8,128)} broadcast(%param_4.141), dimensions={0,1}, metadata={op_name="jit(train_step)/train_step/forward_backward/jvp()/mul" stack_frame_id=122}
  %mul.1572 = f32[4,8192,4096]{2,1,0:T(8,128)} multiply(%mul.1574, %mul.1601), metadata={op_name="jit(train_step)/train_step/forward_backward/transpose(jvp())/mul" stack_frame_id=122}
  %param_0.671 = bf16[4,8192,4096]{2,1,0:T(8,128)(2,1)} parameter(0)
  %convert_element_type.737 = f32[4,8192,4096]{2,1,0:T(8,128)} convert(%param_0.671), metadata={op_name="jit(train_step)/train_step/forward_backward/jvp()/convert_element_type" stack_frame_id=118}
  %param_2.541 = f32[4,8192]{1,0:T(4,128)S(1)} parameter(2)
  %broadcast_in_dim.283 = f32[4,8192,4096]{2,1,0:T(8,128)} broadcast(%param_2.541), dimensions={0,1}, metadata={op_name="jit(train_step)/train_step/forward_backward/transpose(jvp())/broadcast_in_dim" stack_frame_id=120}
  %mul.1570 = f32[4,8192,4096]{2,1,0:T(8,128)} multiply(%convert_element_type.737, %broadcast_in_dim.283), metadata={op_name="jit(train_step)/train_step/forward_backward/transpose(jvp())/mul" stack_frame_id=119}
  %add_any.256 = f32[4,8192,4096]{2,1,0:T(8,128)} add(%mul.1572, %mul.1570), metadata={op_name="jit(train_step)/train_step/forward_backward/transpose(jvp())/add_any" stack_frame_id=119}
  %add_any.255 = f32[4,8192,4096]{2,1,0:T(8,128)} add(%add_any.256, %mul.1570), metadata={op_name="jit(train_step)/train_step/forward_backward/transpose(jvp())/add_any" stack_frame_id=119}
  ROOT %convert_element_type.731 = bf16[4,8192,4096]{2,1,0:T(8,128)(2,1)} convert(%add_any.255), metadata={op_name="jit(train_step)/train_step/forward_backward/transpose(jvp())/convert_element_type" stack_frame_id=118}
}

%region_4.7 (reduce_sum.219: f32[], reduce_sum.220: f32[]) -> f32[] {
  %reduce_sum.219 = f32[]{:T(128)} parameter(0), metadata={op_name="jit(train_step)/train_step/forward_backward/jvp()/reduce_sum"}
  %reduce_sum.220 = f32[]{:T(128)} parameter(1), metadata={op_name="jit(train_step)/train_step/forward_backward/jvp()/reduce_sum"}
  ROOT %reduce_sum.221 = f32[]{:T(128)} add(%reduce_sum.219, %reduce_sum.220), metadata={op_name="jit(train_step)/train_step/forward_backward/jvp()/reduce_sum" stack_frame_id=120}, backend_config={"flag_configs":[],"scoped_memory_configs":[],"used_scoped_memory_configs":[],"aliasing_operands":{"lists":[]}}
}

%fused_computation.246 (param_0.828: bf16[4,8192,4096]) -> f32[4,8192] {
  %param_0.828 = bf16[4,8192,4096]{2,1,0:T(8,128)(2,1)} parameter(0)
  %convert_element_type.733 = f32[4,8192,4096]{2,1,0:T(8,128)} convert(%param_0.828), metadata={op_name="jit(train_step)/train_step/forward_backward/jvp()/convert_element_type" stack_frame_id=118}
  %mul.1566 = f32[4,8192,4096]{2,1,0:T(8,128)} multiply(%convert_element_type.733, %convert_element_type.733), metadata={op_name="jit(train_step)/train_step/forward_backward/jvp()/mul" stack_frame_id=119}
  %constant.1416 = f32[]{:T(128)} constant(0)
  ROOT %reduce.62 = f32[4,8192]{1,0:T(4,128)S(1)} reduce(%mul.1566, %constant.1416), dimensions={2}, to_apply=%region_4.7, metadata={op_name="jit(train_step)/train_step/forward_backward/jvp()/reduce_sum" stack_frame_id=120}
}

%region_36.43.clone (scatter-add.6: bf16[], scatter-add.7: bf16[]) -> bf16[] {
  %scatter-add.6 = bf16[]{:T(256)} parameter(0), metadata={op_name="jit(train_step)/train_step/forward_backward/transpose(jvp())/scatter-add"}
  %scatter-add.7 = bf16[]{:T(256)} parameter(1), metadata={op_name="jit(train_step)/train_step/forward_backward/transpose(jvp())/scatter-add"}
  ROOT %add.514 = bf16[]{:T(256)} add(%scatter-add.6, %scatter-add.7), metadata={op_name="jit(train_step)/train_step/forward_backward/transpose(jvp())/add" stack_frame_id=9}, backend_config={"flag_configs":[],"scoped_memory_configs":[],"used_scoped_memory_configs":[],"aliasing_operands":{"lists":[]}}
}

%fused_computation.1.clone (param_0.634: bf16[128256,4096], param_1.685: s32[32768], param_2.494: bf16[32768,4096]) -> bf16[128256,4096] {
  %param_0.634 = bf16[128256,4096]{1,0:T(8,128)(2,1)} parameter(0)
  %param_1.685 = s32[32768]{0:T(1024)} parameter(1)
  %reshape.560 = s32[4,8192]{1,0:T(4,128)} reshape(%param_1.685), metadata={op_name="jit(train_step)/train_step/forward_backward/jvp()/broadcast_in_dim" stack_frame_id=9}
  %transpose.179 = s32[4,8192]{1,0:T(4,128)} transpose(%reshape.560), dimensions={0,1}, metadata={op_name="jit(train_step)/train_step/forward_backward/jvp()/broadcast_in_dim" stack_frame_id=9}
  %param_2.494 = bf16[32768,4096]{1,0:T(8,128)(2,1)} parameter(2)
  %reshape.561 = bf16[4,8192,4096]{2,1,0:T(8,128)(2,1)} reshape(%param_2.494), metadata={op_name="jit(train_step)/train_step/forward_backward/transpose(jvp())/while" stack_frame_id=10}
  %transpose.180 = bf16[4,8192,4096]{2,1,0:T(8,128)(2,1)} transpose(%reshape.561), dimensions={0,1,2}, metadata={op_name="jit(train_step)/train_step/forward_backward/transpose(jvp())/while" stack_frame_id=10}
  ROOT %scatter.35 = bf16[128256,4096]{1,0:T(8,128)(2,1)} scatter(%param_0.634, %transpose.179, %transpose.180), update_window_dims={2}, inserted_window_dims={0}, scatter_dims_to_operand_dims={0}, index_vector_dim=2, indices_are_sorted=true, to_apply=%region_36.43.clone, metadata={op_name="jit(train_step)/train_step/forward_backward/transpose(jvp())/scatter-add" stack_frame_id=9}
}

%fused_computation.250 (param_0.637: bf16[]) -> bf16[128256,4096] {
  %param_0.637 = bf16[]{:T(256)} parameter(0)
  ROOT %broadcast.449 = bf16[128256,4096]{1,0:T(8,128)(2,1)} broadcast(%param_0.637), dimensions={}, metadata={op_name="jit(train_step)/train_step/forward_backward/transpose(jvp())/scatter-add" stack_frame_id=9}
}

%fused_computation.6.clone.clone (param_0.659: bf16[32768,4096], param_1.720: s32[32768]) -> bf16[32768,4096] {
  %param_0.659 = bf16[32768,4096]{1,0:T(8,128)(2,1)} parameter(0)
  %param_1.720 = s32[32768]{0:T(1024)} parameter(1)
  %custom-call.11 = s32[32768]{0:T(1024)} custom-call(%param_1.720), custom_call_target="AssumeGatherIndicesInBound", operand_layout_constraints={s32[32768]{0:T(1024)}}, metadata={op_name="jit(train_step)/train_step/forward_backward/transpose(jvp())/scatter-add" stack_frame_id=9}
  %slice.212 = s32[32768]{0:T(1024)} slice(%custom-call.11), slice={[0:32768]}, metadata={op_name="jit(train_step)/train_step/forward_backward/transpose(jvp())/scatter-add" stack_frame_id=9}
  ROOT %gather.8 = bf16[32768,4096]{1,0:T(8,128)(2,1)} gather(%param_0.659, %slice.212), offset_dims={1}, collapsed_slice_dims={0}, start_index_map={0}, index_vector_dim=1, slice_sizes={1,4096}, metadata={op_name="jit(train_step)/train_step/forward_backward/transpose(jvp())/scatter-add" stack_frame_id=9}
}

%fused_computation.256 (param_0.660: bf16[32768,4096], param_1.721: s32[32768]) -> bf16[32768,4096] {
  %param_0.660 = bf16[32768,4096]{1,0:T(8,128)(2,1)} parameter(0)
  %param_1.721 = s32[32768]{0:T(1024)} parameter(1)
  ROOT %fusion.174 = bf16[32768,4096]{1,0:T(8,128)(2,1)} fusion(%param_0.660, %param_1.721), kind=kCustom, calls=%fused_computation.6.clone.clone, metadata={op_name="jit(train_step)/train_step/forward_backward/transpose(jvp())/scatter-add" stack_frame_id=9}
}

%fused_computation.249 (param_0.636: s32[32768], param_1.719: bf16[], param_2.525: bf16[32768,4096], param_3.281: s32[32768]) -> bf16[128256,4096] {
  %param_1.719 = bf16[]{:T(256)} parameter(1)
  %fusion.170 = bf16[128256,4096]{1,0:T(8,128)(2,1)} fusion(%param_1.719), kind=kLoop, calls=%fused_computation.250, metadata={op_name="jit(train_step)/train_step/forward_backward/transpose(jvp())/scatter-add" stack_frame_id=9}
  %param_0.636 = s32[32768]{0:T(1024)} parameter(0)
  %param_2.525 = bf16[32768,4096]{1,0:T(8,128)(2,1)} parameter(2)
  %param_3.281 = s32[32768]{0:T(1024)} parameter(3)
  %fusion.175 = bf16[32768,4096]{1,0:T(8,128)(2,1)} fusion(%param_2.525, %param_3.281), kind=kLoop, calls=%fused_computation.256, metadata={op_name="jit(train_step)/train_step/forward_backward/transpose(jvp())/scatter-add" stack_frame_id=9}
  ROOT %fusion.168 = bf16[128256,4096]{1,0:T(8,128)(2,1)} fusion(%fusion.170, %param_0.636, %fusion.175), kind=kCustom, calls=%fused_computation.1.clone, metadata={op_name="jit(train_step)/train_step/forward_backward/transpose(jvp())/scatter-add" stack_frame_id=9}
}

%fused_computation.254 (param_0.652: f32[32768,4096], param_1.722: f32[]) -> f32[32768,4096] {
  %param_0.652 = f32[32768,4096]{1,0:T(8,128)} parameter(0)
  %param_1.722 = f32[]{:T(128)} parameter(1)
  %mul.1592 = f32[32768,4096]{1,0:T(8,128)} broadcast(%param_1.722), dimensions={}, metadata={op_name="jit(train_step)/train_step/forward_backward/transpose(train_step)/forward_backward/jvp()/shard_map/tokamax:{\"op\":{\"__type\":\"tokamax._src.ops.linear_softmax_cross_entropy_loss.chunked_xla.ChunkedXlaLinearSoftmaxCrossEntropyLossVjp\",\"config\":{\"b_block_size\":1024,\"v_block_size\":2048},\"vjp\":null},\"arguments\":{\"dout\":\"f32[]\",\"labels\":\"i32[32768]\",\"out\":\"f32[]\",\"reduction\":\"sum\",\"residuals\":[\"f32[32768]\"],\"return_residuals\":false,\"w\":\"f32[4096,128256]\",\"x\":\"f32[32768,4096]\"}}/jit(linear_softmax_cross_entropy_loss_bwd_chunked_xla)/mul" stack_frame_id=192}
  %mul.1587 = f32[32768,4096]{1,0:T(8,128)} multiply(%param_0.652, %mul.1592), metadata={op_name="jit(train_step)/train_step/forward_backward/transpose(train_step)/forward_backward/jvp()/shard_map/tokamax:{\"op\":{\"__type\":\"tokamax._src.ops.linear_softmax_cross_entropy_loss.chunked_xla.ChunkedXlaLinearSoftmaxCrossEntropyLossVjp\",\"config\":{\"b_block_size\":1024,\"v_block_size\":2048},\"vjp\":null},\"arguments\":{\"dout\":\"f32[]\",\"labels\":\"i32[32768]\",\"out\":\"f32[]\",\"reduction\":\"sum\",\"residuals\":[\"f32[32768]\"],\"return_residuals\":false,\"w\":\"f32[4096,128256]\",\"x\":\"f32[32768,4096]\"}}/jit(linear_softmax_cross_entropy_loss_bwd_chunked_xla)/mul" stack_frame_id=192}
  %convert_element_type.741 = bf16[32768,4096]{1,0:T(8,128)(2,1)} convert(%mul.1587), metadata={op_name="jit(train_step)/train_step/forward_backward/transpose(jvp())/convert_element_type" stack_frame_id=126}
  ROOT %convert_element_type.739 = f32[32768,4096]{1,0:T(8,128)} convert(%convert_element_type.741), metadata={op_name="jit(train_step)/train_step/forward_backward/transpose(jvp())/convert_element_type" stack_frame_id=124}
}

%fused_computation.255 (param_0.673: bf16[4,8192,4096], param_1.740: f32[4096], param_2.542: f32[4,8192]) -> bf16[4,8192,4096] {
  %param_0.673 = bf16[4,8192,4096]{2,1,0:T(8,128)(2,1)} parameter(0)
  %convert_element_type.746 = f32[4,8192,4096]{2,1,0:T(8,128)} convert(%param_0.673), metadata={op_name="jit(train_step)/train_step/forward_backward/jvp()/convert_element_type" stack_frame_id=118}
  %param_2.542 = f32[4,8192]{1,0:T(4,128)S(1)} parameter(2)
  %mul.1602 = f32[4,8192,4096]{2,1,0:T(8,128)} broadcast(%param_2.542), dimensions={0,1}, metadata={op_name="jit(train_step)/train_step/forward_backward/jvp()/mul" stack_frame_id=122}
  %mul.1591 = f32[4,8192,4096]{2,1,0:T(8,128)} multiply(%convert_element_type.746, %mul.1602), metadata={op_name="jit(train_step)/train_step/forward_backward/jvp()/mul" stack_frame_id=122}
  %param_1.740 = f32[4096]{0:T(1024)S(1)} parameter(1)
  %mul.1599 = f32[4,8192,4096]{2,1,0:T(8,128)} broadcast(%param_1.740), dimensions={2}, metadata={op_name="jit(train_step)/train_step/forward_backward/jvp()/mul" stack_frame_id=122}
  %mul.1590 = f32[4,8192,4096]{2,1,0:T(8,128)} multiply(%mul.1591, %mul.1599), metadata={op_name="jit(train_step)/train_step/forward_backward/jvp()/mul" stack_frame_id=122}
  ROOT %convert_element_type.745 = bf16[4,8192,4096]{2,1,0:T(8,128)(2,1)} convert(%mul.1590), metadata={op_name="jit(train_step)/train_step/forward_backward/jvp()/convert_element_type" stack_frame_id=124}
}

%fused_computation.257 (param_0.834: bf16[32,4096,512], param_1.996: f32[], param_2.778: bf16[], param_3.471: bf16[32,4096,512], param_4.297: bf16[32,4096,512], param_5.239: f32[32,4096,512]) -> (bf16[32,4096,512], bf16[32,4096,512], f32[32,4096,512]) {
  %param_0.834 = bf16[32,4096,512]{2,1,0:T(8,128)(2,1)} parameter(0)
  %convert_element_type.751 = f32[32,4096,512]{2,1,0:T(8,128)} convert(%param_0.834), metadata={op_name="jit(train_step)/train_step/optimizer/convert_element_type" stack_frame_id=187}
  %param_4.297 = bf16[32,4096,512]{2,1,0:T(8,128)(2,1)} parameter(4)
  %constant.1436.clone.1 = bf16[]{:T(256)} constant(0.1001)
  %broadcast.524.clone.1 = bf16[32,4096,512]{2,1,0:T(8,128)(2,1)} broadcast(%constant.1436.clone.1), dimensions={}, metadata={op_name="broadcast.63"}
  %mul.1686.clone.1 = bf16[32,4096,512]{2,1,0:T(8,128)(2,1)} multiply(%param_4.297, %broadcast.524.clone.1), metadata={op_name="jit(train_step)/train_step/optimizer/mul" stack_frame_id=198}
  %convert_element_type.807.clone.1 = f32[32,4096,512]{2,1,0:T(8,128)} convert(%mul.1686.clone.1), metadata={op_name="jit(train_step)/train_step/optimizer/convert_element_type" stack_frame_id=198}
  %param_5.239 = f32[32,4096,512]{2,1,0:T(8,128)} parameter(5)
  %constant.1435.clone.1 = f32[]{:T(128)} constant(0.9)
  %broadcast.523.clone.1 = f32[32,4096,512]{2,1,0:T(8,128)} broadcast(%constant.1435.clone.1), dimensions={}, metadata={op_name="broadcast.62"}
  %mul.1685.clone.1 = f32[32,4096,512]{2,1,0:T(8,128)} multiply(%param_5.239, %broadcast.523.clone.1), metadata={op_name="jit(train_step)/train_step/optimizer/mul" stack_frame_id=199}
  %add.787.clone.1 = f32[32,4096,512]{2,1,0:T(8,128)} add(%convert_element_type.807.clone.1, %mul.1685.clone.1), metadata={op_name="jit(train_step)/train_step/optimizer/add" stack_frame_id=198}
  %param_1.996 = f32[]{:T(128)S(6)} parameter(1)
  %div.311 = f32[32,4096,512]{2,1,0:T(8,128)} broadcast(%param_1.996), dimensions={}, metadata={op_name="jit(train_step)/train_step/optimizer/div" stack_frame_id=207}
  %integer_pow.54.clone.1 = bf16[32,4096,512]{2,1,0:T(8,128)(2,1)} multiply(%param_4.297, %param_4.297), metadata={op_name="jit(train_step)/train_step/optimizer/integer_pow" stack_frame_id=214}
  %constant.1434.clone.1 = bf16[]{:T(256)} constant(0.0009995)
  %broadcast.522.clone.1 = bf16[32,4096,512]{2,1,0:T(8,128)(2,1)} broadcast(%constant.1434.clone.1), dimensions={}, metadata={op_name="broadcast.57"}
  %mul.1684.clone.1 = bf16[32,4096,512]{2,1,0:T(8,128)(2,1)} multiply(%integer_pow.54.clone.1, %broadcast.522.clone.1), metadata={op_name="jit(train_step)/train_step/optimizer/mul" stack_frame_id=217}
  %param_3.471 = bf16[32,4096,512]{2,1,0:T(8,128)(2,1)} parameter(3)
  %add.786.clone.1 = bf16[32,4096,512]{2,1,0:T(8,128)(2,1)} add(%mul.1684.clone.1, %param_3.471), metadata={op_name="jit(train_step)/train_step/optimizer/add" stack_frame_id=217}
  %param_2.778 = bf16[]{:T(256)S(6)} parameter(2)
  %div.319 = bf16[32,4096,512]{2,1,0:T(8,128)(2,1)} broadcast(%param_2.778), dimensions={}, metadata={op_name="jit(train_step)/train_step/optimizer/div" stack_frame_id=218}
  %div.310 = bf16[32,4096,512]{2,1,0:T(8,128)(2,1)} divide(%add.786.clone.1, %div.319), metadata={op_name="jit(train_step)/train_step/optimizer/div" stack_frame_id=218}
  %sqrt.42 = bf16[32,4096,512]{2,1,0:T(8,128)(2,1)} sqrt(%div.310), metadata={op_name="jit(train_step)/train_step/optimizer/sqrt" stack_frame_id=220}
  %constant.1361 = bf16[]{:T(256)} constant(1.001e-08)
  %broadcast.471 = bf16[32,4096,512]{2,1,0:T(8,128)(2,1)} broadcast(%constant.1361), dimensions={}, metadata={op_name="broadcast.52"}
  %add.729 = bf16[32,4096,512]{2,1,0:T(8,128)(2,1)} add(%sqrt.42, %broadcast.471), metadata={op_name="jit(train_step)/train_step/optimizer/add" stack_frame_id=220}
  %convert_element_type.749 = f32[32,4096,512]{2,1,0:T(8,128)} convert(%add.729), metadata={op_name="jit(train_step)/train_step/optimizer/convert_element_type" stack_frame_id=221}
  %multiply.174 = f32[32,4096,512]{2,1,0:T(8,128)} multiply(%div.311, %convert_element_type.749), metadata={op_name="multiply.41"}
  %div.303 = f32[32,4096,512]{2,1,0:T(8,128)} divide(%add.787.clone.1, %multiply.174), metadata={op_name="jit(train_step)/train_step/optimizer/div" stack_frame_id=221}
  %constant.1422 = bf16[]{:T(256)} constant(0), metadata={op_name="jit(train_step)/train_step/forward_backward/transpose(jvp())/scatter-add" stack_frame_id=9}
  %broadcast.477 = bf16[32,4096,512]{2,1,0:T(8,128)(2,1)} broadcast(%constant.1422), dimensions={}, metadata={op_name="broadcast.73"}
  %mul.1609 = bf16[32,4096,512]{2,1,0:T(8,128)(2,1)} multiply(%param_0.834, %broadcast.477), metadata={op_name="jit(train_step)/train_step/optimizer/mul" stack_frame_id=223}
  %convert_element_type.748 = f32[32,4096,512]{2,1,0:T(8,128)} convert(%mul.1609), metadata={op_name="jit(train_step)/train_step/optimizer/convert_element_type" stack_frame_id=224}
  %add.717 = f32[32,4096,512]{2,1,0:T(8,128)} add(%div.303, %convert_element_type.748), metadata={op_name="jit(train_step)/train_step/optimizer/add" stack_frame_id=224}
  %constant.1348 = f32[]{:T(128)} constant(-1e-05)
  %broadcast.463 = f32[32,4096,512]{2,1,0:T(8,128)} broadcast(%constant.1348), dimensions={}, metadata={op_name="broadcast.47"}
  %mul.1593 = f32[32,4096,512]{2,1,0:T(8,128)} multiply(%add.717, %broadcast.463), metadata={op_name="jit(train_step)/train_step/optimizer/mul" stack_frame_id=226}
  %add.716 = f32[32,4096,512]{2,1,0:T(8,128)} add(%convert_element_type.751, %mul.1593), metadata={op_name="jit(train_step)/train_step/optimizer/add" stack_frame_id=187}
  %convert_element_type.747 = bf16[32,4096,512]{2,1,0:T(8,128)(2,1)} convert(%add.716), metadata={op_name="jit(train_step)/train_step/optimizer/convert_element_type" stack_frame_id=227}
  ROOT %tuple.204 = (bf16[32,4096,512]{2,1,0:T(8,128)(2,1)}, bf16[32,4096,512]{2,1,0:T(8,128)(2,1)}, f32[32,4096,512]{2,1,0:T(8,128)}) tuple(%convert_element_type.747, %add.786.clone.1, %add.787.clone.1)
}

%fused_computation.259 (param_0.837: bf16[32,512,4096], param_1.999: f32[], param_2.780: bf16[], param_3.473: bf16[32,512,4096], param_4.300: bf16[32,512,4096], param_5.244: f32[32,512,4096]) -> (bf16[32,512,4096], bf16[32,512,4096], f32[32,512,4096]) {
  %param_0.837 = bf16[32,512,4096]{2,1,0:T(8,128)(2,1)} parameter(0)
  %convert_element_type.756 = f32[32,512,4096]{2,1,0:T(8,128)} convert(%param_0.837), metadata={op_name="jit(train_step)/train_step/optimizer/convert_element_type" stack_frame_id=187}
  %param_4.300 = bf16[32,512,4096]{2,1,0:T(8,128)(2,1)} parameter(4)
  %constant.1439.clone.1 = bf16[]{:T(256)} constant(0.1001)
  %broadcast.527.clone.1 = bf16[32,512,4096]{2,1,0:T(8,128)(2,1)} broadcast(%constant.1439.clone.1), dimensions={}, metadata={op_name="broadcast.63"}
  %mul.1689.clone.1 = bf16[32,512,4096]{2,1,0:T(8,128)(2,1)} multiply(%param_4.300, %broadcast.527.clone.1), metadata={op_name="jit(train_step)/train_step/optimizer/mul" stack_frame_id=198}
  %convert_element_type.808.clone.1 = f32[32,512,4096]{2,1,0:T(8,128)} convert(%mul.1689.clone.1), metadata={op_name="jit(train_step)/train_step/optimizer/convert_element_type" stack_frame_id=198}
  %param_5.244 = f32[32,512,4096]{2,1,0:T(8,128)} parameter(5)
  %constant.1438.clone.1 = f32[]{:T(128)} constant(0.9)
  %broadcast.526.clone.1 = f32[32,512,4096]{2,1,0:T(8,128)} broadcast(%constant.1438.clone.1), dimensions={}, metadata={op_name="broadcast.62"}
  %mul.1688.clone.1 = f32[32,512,4096]{2,1,0:T(8,128)} multiply(%param_5.244, %broadcast.526.clone.1), metadata={op_name="jit(train_step)/train_step/optimizer/mul" stack_frame_id=199}
  %add.789.clone.1 = f32[32,512,4096]{2,1,0:T(8,128)} add(%convert_element_type.808.clone.1, %mul.1688.clone.1), metadata={op_name="jit(train_step)/train_step/optimizer/add" stack_frame_id=198}
  %param_1.999 = f32[]{:T(128)S(6)} parameter(1)
  %div.313 = f32[32,512,4096]{2,1,0:T(8,128)} broadcast(%param_1.999), dimensions={}, metadata={op_name="jit(train_step)/train_step/optimizer/div" stack_frame_id=207}
  %integer_pow.55.clone.1 = bf16[32,512,4096]{2,1,0:T(8,128)(2,1)} multiply(%param_4.300, %param_4.300), metadata={op_name="jit(train_step)/train_step/optimizer/integer_pow" stack_frame_id=214}
  %constant.1437.clone.1 = bf16[]{:T(256)} constant(0.0009995)
  %broadcast.525.clone.1 = bf16[32,512,4096]{2,1,0:T(8,128)(2,1)} broadcast(%constant.1437.clone.1), dimensions={}, metadata={op_name="broadcast.57"}
  %mul.1687.clone.1 = bf16[32,512,4096]{2,1,0:T(8,128)(2,1)} multiply(%integer_pow.55.clone.1, %broadcast.525.clone.1), metadata={op_name="jit(train_step)/train_step/optimizer/mul" stack_frame_id=217}
  %param_3.473 = bf16[32,512,4096]{2,1,0:T(8,128)(2,1)} parameter(3)
  %add.788.clone.1 = bf16[32,512,4096]{2,1,0:T(8,128)(2,1)} add(%mul.1687.clone.1, %param_3.473), metadata={op_name="jit(train_step)/train_step/optimizer/add" stack_frame_id=217}
  %param_2.780 = bf16[]{:T(256)S(6)} parameter(2)
  %div.320 = bf16[32,512,4096]{2,1,0:T(8,128)(2,1)} broadcast(%param_2.780), dimensions={}, metadata={op_name="jit(train_step)/train_step/optimizer/div" stack_frame_id=218}
  %div.312 = bf16[32,512,4096]{2,1,0:T(8,128)(2,1)} divide(%add.788.clone.1, %div.320), metadata={op_name="jit(train_step)/train_step/optimizer/div" stack_frame_id=218}
  %sqrt.43 = bf16[32,512,4096]{2,1,0:T(8,128)(2,1)} sqrt(%div.312), metadata={op_name="jit(train_step)/train_step/optimizer/sqrt" stack_frame_id=220}
  %constant.1362 = bf16[]{:T(256)} constant(1.001e-08)
  %broadcast.474 = bf16[32,512,4096]{2,1,0:T(8,128)(2,1)} broadcast(%constant.1362), dimensions={}, metadata={op_name="broadcast.52"}
  %add.731 = bf16[32,512,4096]{2,1,0:T(8,128)(2,1)} add(%sqrt.43, %broadcast.474), metadata={op_name="jit(train_step)/train_step/optimizer/add" stack_frame_id=220}
  %convert_element_type.754 = f32[32,512,4096]{2,1,0:T(8,128)} convert(%add.731), metadata={op_name="jit(train_step)/train_step/optimizer/convert_element_type" stack_frame_id=221}
  %multiply.175 = f32[32,512,4096]{2,1,0:T(8,128)} multiply(%div.313, %convert_element_type.754), metadata={op_name="multiply.40"}
  %div.304 = f32[32,512,4096]{2,1,0:T(8,128)} divide(%add.789.clone.1, %multiply.175), metadata={op_name="jit(train_step)/train_step/optimizer/div" stack_frame_id=221}
  %constant.1421 = bf16[]{:T(256)} constant(0), metadata={op_name="jit(train_step)/train_step/forward_backward/transpose(jvp())/scatter-add" stack_frame_id=9}
  %broadcast.478 = bf16[32,512,4096]{2,1,0:T(8,128)(2,1)} broadcast(%constant.1421), dimensions={}, metadata={op_name="broadcast.73"}
  %mul.1612 = bf16[32,512,4096]{2,1,0:T(8,128)(2,1)} multiply(%param_0.837, %broadcast.478), metadata={op_name="jit(train_step)/train_step/optimizer/mul" stack_frame_id=223}
  %convert_element_type.753 = f32[32,512,4096]{2,1,0:T(8,128)} convert(%mul.1612), metadata={op_name="jit(train_step)/train_step/optimizer/convert_element_type" stack_frame_id=224}
  %add.720 = f32[32,512,4096]{2,1,0:T(8,128)} add(%div.304, %convert_element_type.753), metadata={op_name="jit(train_step)/train_step/optimizer/add" stack_frame_id=224}
  %constant.1349 = f32[]{:T(128)} constant(-1e-05)
  %broadcast.465 = f32[32,512,4096]{2,1,0:T(8,128)} broadcast(%constant.1349), dimensions={}, metadata={op_name="broadcast.47"}
  %mul.1595 = f32[32,512,4096]{2,1,0:T(8,128)} multiply(%add.720, %broadcast.465), metadata={op_name="jit(train_step)/train_step/optimizer/mul" stack_frame_id=226}
  %add.719 = f32[32,512,4096]{2,1,0:T(8,128)} add(%convert_element_type.756, %mul.1595), metadata={op_name="jit(train_step)/train_step/optimizer/add" stack_frame_id=187}
  %convert_element_type.752 = bf16[32,512,4096]{2,1,0:T(8,128)(2,1)} convert(%add.719), metadata={op_name="jit(train_step)/train_step/optimizer/convert_element_type" stack_frame_id=227}
  ROOT %tuple.206 = (bf16[32,512,4096]{2,1,0:T(8,128)(2,1)}, bf16[32,512,4096]{2,1,0:T(8,128)(2,1)}, f32[32,512,4096]{2,1,0:T(8,128)}) tuple(%convert_element_type.752, %add.788.clone.1, %add.789.clone.1)
}

%fused_computation.262 (param_0.863: bf16[16032,4096], param_1.1026: f32[], param_2.802: bf16[], param_3.491: bf16[16032,4096], param_4.327: bf16[128256,4096], param_5.290: u32[], param_6.199: f32[16032,4096]) -> (bf16[16032,4096], bf16[16032,4096], f32[16032,4096]) {
  %param_0.863 = bf16[16032,4096]{1,0:T(8,128)(2,1)} parameter(0)
  %convert_element_type.762 = f32[16032,4096]{1,0:T(8,128)} convert(%param_0.863), metadata={op_name="jit(train_step)/train_step/optimizer/convert_element_type" stack_frame_id=187}
  %param_4.327 = bf16[128256,4096]{1,0:T(8,128)(2,1)} parameter(4)
  %param_5.290 = u32[]{:T(128)S(6)} parameter(5)
  %constant.1465.clone.1 = u32[]{:T(128)} constant(0)
  %dynamic-slice.179.clone.1 = bf16[16032,4096]{1,0:T(8,128)(2,1)} dynamic-slice(%param_4.327, %param_5.290, %constant.1465.clone.1), dynamic_slice_sizes={16032,4096}, backend_config={"flag_configs":[],"scoped_memory_configs":[],"indices_config":{"index_known_bits":[{"zeroes":"31","ones":"0","bitwidth":"32"},{"zeroes":"4294967295","ones":"0","bitwidth":"32"}],"is_index_aligned":[false,true]},"used_scoped_memory_configs":[]}
  %constant.1469.clone.1 = bf16[]{:T(256)} constant(0.1001)
  %broadcast.545.clone.1 = bf16[16032,4096]{1,0:T(8,128)(2,1)} broadcast(%constant.1469.clone.1), dimensions={}, metadata={op_name="broadcast.71"}
  %mul.1727.clone.1 = bf16[16032,4096]{1,0:T(8,128)(2,1)} multiply(%dynamic-slice.179.clone.1, %broadcast.545.clone.1), metadata={op_name="jit(train_step)/train_step/optimizer/mul" stack_frame_id=198}
  %convert_element_type.816.clone.1 = f32[16032,4096]{1,0:T(8,128)} convert(%mul.1727.clone.1), metadata={op_name="jit(train_step)/train_step/optimizer/convert_element_type" stack_frame_id=198}
  %param_6.199 = f32[16032,4096]{1,0:T(8,128)} parameter(6)
  %constant.1468.clone.1 = f32[]{:T(128)} constant(0.9)
  %broadcast.544.clone.1 = f32[16032,4096]{1,0:T(8,128)} broadcast(%constant.1468.clone.1), dimensions={}, metadata={op_name="broadcast.70"}
  %mul.1726.clone.1 = f32[16032,4096]{1,0:T(8,128)} multiply(%param_6.199, %broadcast.544.clone.1), metadata={op_name="jit(train_step)/train_step/optimizer/mul" stack_frame_id=199}
  %add.807.clone.1 = f32[16032,4096]{1,0:T(8,128)} add(%convert_element_type.816.clone.1, %mul.1726.clone.1), metadata={op_name="jit(train_step)/train_step/optimizer/add" stack_frame_id=198}
  %param_1.1026 = f32[]{:T(128)S(6)} parameter(1)
  %div.315 = f32[16032,4096]{1,0:T(8,128)} broadcast(%param_1.1026), dimensions={}, metadata={op_name="jit(train_step)/train_step/optimizer/div" stack_frame_id=207}
  %integer_pow.64.clone.1 = bf16[16032,4096]{1,0:T(8,128)(2,1)} multiply(%dynamic-slice.179.clone.1, %dynamic-slice.179.clone.1), metadata={op_name="jit(train_step)/train_step/optimizer/integer_pow" stack_frame_id=214}
  %constant.1466.clone.1 = bf16[]{:T(256)} constant(0.0009995)
  %broadcast.543.clone.1 = bf16[16032,4096]{1,0:T(8,128)(2,1)} broadcast(%constant.1466.clone.1), dimensions={}, metadata={op_name="broadcast.61"}
  %mul.1725.clone.1 = bf16[16032,4096]{1,0:T(8,128)(2,1)} multiply(%integer_pow.64.clone.1, %broadcast.543.clone.1), metadata={op_name="jit(train_step)/train_step/optimizer/mul" stack_frame_id=217}
  %param_3.491 = bf16[16032,4096]{1,0:T(8,128)(2,1)} parameter(3)
  %add.806.clone.1 = bf16[16032,4096]{1,0:T(8,128)(2,1)} add(%mul.1725.clone.1, %param_3.491), metadata={op_name="jit(train_step)/train_step/optimizer/add" stack_frame_id=217}
  %param_2.802 = bf16[]{:T(256)S(6)} parameter(2)
  %div.322 = bf16[16032,4096]{1,0:T(8,128)(2,1)} broadcast(%param_2.802), dimensions={}, metadata={op_name="jit(train_step)/train_step/optimizer/div" stack_frame_id=218}
  %div.314 = bf16[16032,4096]{1,0:T(8,128)(2,1)} divide(%add.806.clone.1, %div.322), metadata={op_name="jit(train_step)/train_step/optimizer/div" stack_frame_id=218}
  %sqrt.44 = bf16[16032,4096]{1,0:T(8,128)(2,1)} sqrt(%div.314), metadata={op_name="jit(train_step)/train_step/optimizer/sqrt" stack_frame_id=220}
  %constant.1368 = bf16[]{:T(256)} constant(1.001e-08)
  %broadcast.479 = bf16[16032,4096]{1,0:T(8,128)(2,1)} broadcast(%constant.1368), dimensions={}, metadata={op_name="broadcast.56"}
  %add.734 = bf16[16032,4096]{1,0:T(8,128)(2,1)} add(%sqrt.44, %broadcast.479), metadata={op_name="jit(train_step)/train_step/optimizer/add" stack_frame_id=220}
  %convert_element_type.760 = f32[16032,4096]{1,0:T(8,128)} convert(%add.734), metadata={op_name="jit(train_step)/train_step/optimizer/convert_element_type" stack_frame_id=221}
  %multiply.176 = f32[16032,4096]{1,0:T(8,128)} multiply(%div.315, %convert_element_type.760), metadata={op_name="multiply.31"}
  %div.305 = f32[16032,4096]{1,0:T(8,128)} divide(%add.807.clone.1, %multiply.176), metadata={op_name="jit(train_step)/train_step/optimizer/div" stack_frame_id=221}
  %constant.1426 = bf16[]{:T(256)} constant(0), metadata={op_name="jit(train_step)/train_step/forward_backward/transpose(jvp())/scatter-add" stack_frame_id=9}
  %broadcast.482 = bf16[16032,4096]{1,0:T(8,128)(2,1)} broadcast(%constant.1426), dimensions={}, metadata={op_name="broadcast.72"}
  %mul.1615 = bf16[16032,4096]{1,0:T(8,128)(2,1)} multiply(%param_0.863, %broadcast.482), metadata={op_name="jit(train_step)/train_step/optimizer/mul" stack_frame_id=223}
  %convert_element_type.759 = f32[16032,4096]{1,0:T(8,128)} convert(%mul.1615), metadata={op_name="jit(train_step)/train_step/optimizer/convert_element_type" stack_frame_id=224}
  %add.724 = f32[16032,4096]{1,0:T(8,128)} add(%div.305, %convert_element_type.759), metadata={op_name="jit(train_step)/train_step/optimizer/add" stack_frame_id=224}
  %constant.1356 = f32[]{:T(128)} constant(-1e-05)
  %broadcast.467 = f32[16032,4096]{1,0:T(8,128)} broadcast(%constant.1356), dimensions={}, metadata={op_name="broadcast.51"}
  %mul.1603 = f32[16032,4096]{1,0:T(8,128)} multiply(%add.724, %broadcast.467), metadata={op_name="jit(train_step)/train_step/optimizer/mul" stack_frame_id=226}
  %add.723 = f32[16032,4096]{1,0:T(8,128)} add(%convert_element_type.762, %mul.1603), metadata={op_name="jit(train_step)/train_step/optimizer/add" stack_frame_id=187}
  %convert_element_type.758 = bf16[16032,4096]{1,0:T(8,128)(2,1)} convert(%add.723), metadata={op_name="jit(train_step)/train_step/optimizer/convert_element_type" stack_frame_id=227}
  ROOT %tuple.224 = (bf16[16032,4096]{1,0:T(8,128)(2,1)}, bf16[16032,4096]{1,0:T(8,128)(2,1)}, f32[16032,4096]{1,0:T(8,128)}) tuple(%convert_element_type.758, %add.806.clone.1, %add.807.clone.1)
}

%fused_computation.264 (param_0.866: bf16[128256,512], param_1.1029: f32[], param_2.804: bf16[], param_3.493: bf16[128256,512], param_4.330: f32[512,128256], param_5.297: f32[128256,512]) -> (bf16[128256,512], bf16[128256,512], f32[128256,512]) {
  %param_0.866 = bf16[128256,512]{1,0:T(8,128)(2,1)} parameter(0)
  %convert_element_type.766 = f32[128256,512]{1,0:T(8,128)} convert(%param_0.866), metadata={op_name="jit(train_step)/train_step/optimizer/convert_element_type" stack_frame_id=187}
  %param_4.330 = f32[512,128256]{0,1:T(8,128)} parameter(4)
  %convert_element_type.819.clone.1 = bf16[512,128256]{0,1:T(8,128)(2,1)} convert(%param_4.330), metadata={op_name="jit(train_step)/train_step/forward_backward/transpose(jvp())/convert_element_type" stack_frame_id=128}
  %constant.1472.clone.1 = bf16[]{:T(256)} constant(0.1001)
  %broadcast.548.clone.1 = bf16[512,128256]{0,1:T(8,128)(2,1)} broadcast(%constant.1472.clone.1), dimensions={}, metadata={op_name="broadcast.297"}
  %mul.1730.clone.1 = bf16[512,128256]{0,1:T(8,128)(2,1)} multiply(%convert_element_type.819.clone.1, %broadcast.548.clone.1), metadata={op_name="jit(train_step)/train_step/optimizer/mul" stack_frame_id=198}
  %convert_element_type.818.clone.1 = f32[512,128256]{0,1:T(8,128)} convert(%mul.1730.clone.1), metadata={op_name="jit(train_step)/train_step/optimizer/convert_element_type" stack_frame_id=198}
  %bitcast.202.clone.1 = f32[128256,512]{1,0:T(8,128)} bitcast(%convert_element_type.818.clone.1), metadata={op_name="jit(train_step)/train_step/optimizer/convert_element_type" stack_frame_id=198}
  %param_5.297 = f32[128256,512]{1,0:T(8,128)} parameter(5)
  %constant.1471.clone.1 = f32[]{:T(128)} constant(0.9)
  %broadcast.547.clone.1 = f32[128256,512]{1,0:T(8,128)} broadcast(%constant.1471.clone.1), dimensions={}, metadata={op_name="broadcast.70"}
  %mul.1729.clone.1 = f32[128256,512]{1,0:T(8,128)} multiply(%param_5.297, %broadcast.547.clone.1), metadata={op_name="jit(train_step)/train_step/optimizer/mul" stack_frame_id=199}
  %add.809.clone.1 = f32[128256,512]{1,0:T(8,128)} add(%bitcast.202.clone.1, %mul.1729.clone.1), metadata={op_name="jit(train_step)/train_step/optimizer/add" stack_frame_id=198}
  %param_1.1029 = f32[]{:T(128)S(6)} parameter(1)
  %div.317 = f32[128256,512]{1,0:T(8,128)} broadcast(%param_1.1029), dimensions={}, metadata={op_name="jit(train_step)/train_step/optimizer/div" stack_frame_id=207}
  %integer_pow.65.clone.1 = bf16[512,128256]{0,1:T(8,128)(2,1)} multiply(%convert_element_type.819.clone.1, %convert_element_type.819.clone.1), metadata={op_name="jit(train_step)/train_step/optimizer/integer_pow" stack_frame_id=214}
  %constant.1470.clone.1 = bf16[]{:T(256)} constant(0.0009995)
  %broadcast.546.clone.1 = bf16[512,128256]{0,1:T(8,128)(2,1)} broadcast(%constant.1470.clone.1), dimensions={}, metadata={op_name="broadcast.300"}
  %mul.1728.clone.1 = bf16[512,128256]{0,1:T(8,128)(2,1)} multiply(%integer_pow.65.clone.1, %broadcast.546.clone.1), metadata={op_name="jit(train_step)/train_step/optimizer/mul" stack_frame_id=217}
  %bitcast.201.clone.1 = bf16[128256,512]{1,0:T(8,128)(2,1)} bitcast(%mul.1728.clone.1), metadata={op_name="jit(train_step)/train_step/optimizer/mul" stack_frame_id=217}
  %param_3.493 = bf16[128256,512]{1,0:T(8,128)(2,1)} parameter(3)
  %add.808.clone.1 = bf16[128256,512]{1,0:T(8,128)(2,1)} add(%bitcast.201.clone.1, %param_3.493), metadata={op_name="jit(train_step)/train_step/optimizer/add" stack_frame_id=217}
  %param_2.804 = bf16[]{:T(256)S(6)} parameter(2)
  %div.323 = bf16[128256,512]{1,0:T(8,128)(2,1)} broadcast(%param_2.804), dimensions={}, metadata={op_name="jit(train_step)/train_step/optimizer/div" stack_frame_id=218}
  %div.316 = bf16[128256,512]{1,0:T(8,128)(2,1)} divide(%add.808.clone.1, %div.323), metadata={op_name="jit(train_step)/train_step/optimizer/div" stack_frame_id=218}
  %sqrt.45 = bf16[128256,512]{1,0:T(8,128)(2,1)} sqrt(%div.316), metadata={op_name="jit(train_step)/train_step/optimizer/sqrt" stack_frame_id=220}
  %constant.1369 = bf16[]{:T(256)} constant(1.001e-08)
  %broadcast.484 = bf16[128256,512]{1,0:T(8,128)(2,1)} broadcast(%constant.1369), dimensions={}, metadata={op_name="broadcast.56"}
  %add.736 = bf16[128256,512]{1,0:T(8,128)(2,1)} add(%sqrt.45, %broadcast.484), metadata={op_name="jit(train_step)/train_step/optimizer/add" stack_frame_id=220}
  %convert_element_type.765 = f32[128256,512]{1,0:T(8,128)} convert(%add.736), metadata={op_name="jit(train_step)/train_step/optimizer/convert_element_type" stack_frame_id=221}
  %multiply.177 = f32[128256,512]{1,0:T(8,128)} multiply(%div.317, %convert_element_type.765), metadata={op_name="multiply.29"}
  %div.306 = f32[128256,512]{1,0:T(8,128)} divide(%add.809.clone.1, %multiply.177), metadata={op_name="jit(train_step)/train_step/optimizer/div" stack_frame_id=221}
  %constant.1427 = bf16[]{:T(256)} constant(0), metadata={op_name="jit(train_step)/train_step/forward_backward/transpose(jvp())/scatter-add" stack_frame_id=9}
  %broadcast.483 = bf16[128256,512]{1,0:T(8,128)(2,1)} broadcast(%constant.1427), dimensions={}, metadata={op_name="broadcast.72"}
  %mul.1618 = bf16[128256,512]{1,0:T(8,128)(2,1)} multiply(%param_0.866, %broadcast.483), metadata={op_name="jit(train_step)/train_step/optimizer/mul" stack_frame_id=223}
  %convert_element_type.764 = f32[128256,512]{1,0:T(8,128)} convert(%mul.1618), metadata={op_name="jit(train_step)/train_step/optimizer/convert_element_type" stack_frame_id=224}
  %add.727 = f32[128256,512]{1,0:T(8,128)} add(%div.306, %convert_element_type.764), metadata={op_name="jit(train_step)/train_step/optimizer/add" stack_frame_id=224}
  %constant.1357 = f32[]{:T(128)} constant(-1e-05)
  %broadcast.469 = f32[128256,512]{1,0:T(8,128)} broadcast(%constant.1357), dimensions={}, metadata={op_name="broadcast.51"}
  %mul.1605 = f32[128256,512]{1,0:T(8,128)} multiply(%add.727, %broadcast.469), metadata={op_name="jit(train_step)/train_step/optimizer/mul" stack_frame_id=226}
  %add.726 = f32[128256,512]{1,0:T(8,128)} add(%convert_element_type.766, %mul.1605), metadata={op_name="jit(train_step)/train_step/optimizer/add" stack_frame_id=187}
  %convert_element_type.763 = bf16[128256,512]{1,0:T(8,128)(2,1)} convert(%add.726), metadata={op_name="jit(train_step)/train_step/optimizer/convert_element_type" stack_frame_id=227}
  ROOT %tuple.226 = (bf16[128256,512]{1,0:T(8,128)(2,1)}, bf16[128256,512]{1,0:T(8,128)(2,1)}, f32[128256,512]{1,0:T(8,128)}) tuple(%convert_element_type.763, %add.808.clone.1, %add.809.clone.1)
}

%fused_computation.269 (param_0.831: bf16[32,1024,512], param_1.993: f32[], param_2.776: bf16[], param_3.469: bf16[32,1024,512], param_4.294: bf16[32,1024,512], param_5.234: f32[32,1024,512], param_6.233: bf16[32,1024,512], param_7.127: bf16[32,1024,512], param_8.31: bf16[32,1024,512], param_9.13: f32[32,1024,512]) -> (bf16[32,1024,512], bf16[32,1024,512], f32[32,1024,512], bf16[32,1024,512], bf16[32,1024,512], /*index=5*/f32[32,1024,512]) {
  %param_0.831 = bf16[32,1024,512]{2,1,0:T(8,128)(2,1)} parameter(0)
  %convert_element_type.771 = f32[32,1024,512]{2,1,0:T(8,128)} convert(%param_0.831), metadata={op_name="jit(train_step)/train_step/optimizer/convert_element_type" stack_frame_id=187}
  %param_4.294 = bf16[32,1024,512]{2,1,0:T(8,128)(2,1)} parameter(4)
  %constant.1433.clone.1 = bf16[]{:T(256)} constant(0.1001)
  %broadcast.521.clone.1 = bf16[32,1024,512]{2,1,0:T(8,128)(2,1)} broadcast(%constant.1433.clone.1), dimensions={}, metadata={op_name="broadcast.65"}
  %mul.1683.clone.1 = bf16[32,1024,512]{2,1,0:T(8,128)(2,1)} multiply(%param_4.294, %broadcast.521.clone.1), metadata={op_name="jit(train_step)/train_step/optimizer/mul" stack_frame_id=198}
  %convert_element_type.806.clone.1 = f32[32,1024,512]{2,1,0:T(8,128)} convert(%mul.1683.clone.1), metadata={op_name="jit(train_step)/train_step/optimizer/convert_element_type" stack_frame_id=198}
  %param_5.234 = f32[32,1024,512]{2,1,0:T(8,128)} parameter(5)
  %constant.1432.clone.1 = f32[]{:T(128)} constant(0.9)
  %broadcast.520.clone.1 = f32[32,1024,512]{2,1,0:T(8,128)} broadcast(%constant.1432.clone.1), dimensions={}, metadata={op_name="broadcast.64"}
  %mul.1682.clone.1 = f32[32,1024,512]{2,1,0:T(8,128)} multiply(%param_5.234, %broadcast.520.clone.1), metadata={op_name="jit(train_step)/train_step/optimizer/mul" stack_frame_id=199}
  %add.785.clone.1 = f32[32,1024,512]{2,1,0:T(8,128)} add(%convert_element_type.806.clone.1, %mul.1682.clone.1), metadata={op_name="jit(train_step)/train_step/optimizer/add" stack_frame_id=198}
  %param_1.993 = f32[]{:T(128)S(6)} parameter(1)
  %div.326 = f32[32,1024,512]{2,1,0:T(8,128)} broadcast(%param_1.993), dimensions={}, metadata={op_name="jit(train_step)/train_step/optimizer/div" stack_frame_id=207}
  %integer_pow.53.clone.1 = bf16[32,1024,512]{2,1,0:T(8,128)(2,1)} multiply(%param_4.294, %param_4.294), metadata={op_name="jit(train_step)/train_step/optimizer/integer_pow" stack_frame_id=214}
  %constant.1431.clone.1 = bf16[]{:T(256)} constant(0.0009995)
  %broadcast.519.clone.1 = bf16[32,1024,512]{2,1,0:T(8,128)(2,1)} broadcast(%constant.1431.clone.1), dimensions={}, metadata={op_name="broadcast.58"}
  %mul.1681.clone.1 = bf16[32,1024,512]{2,1,0:T(8,128)(2,1)} multiply(%integer_pow.53.clone.1, %broadcast.519.clone.1), metadata={op_name="jit(train_step)/train_step/optimizer/mul" stack_frame_id=217}
  %param_3.469 = bf16[32,1024,512]{2,1,0:T(8,128)(2,1)} parameter(3)
  %add.784.clone.1 = bf16[32,1024,512]{2,1,0:T(8,128)(2,1)} add(%mul.1681.clone.1, %param_3.469), metadata={op_name="jit(train_step)/train_step/optimizer/add" stack_frame_id=217}
  %param_2.776 = bf16[]{:T(256)S(6)} parameter(2)
  %div.328 = bf16[32,1024,512]{2,1,0:T(8,128)(2,1)} broadcast(%param_2.776), dimensions={}, metadata={op_name="jit(train_step)/train_step/optimizer/div" stack_frame_id=218}
  %div.324 = bf16[32,1024,512]{2,1,0:T(8,128)(2,1)} divide(%add.784.clone.1, %div.328), metadata={op_name="jit(train_step)/train_step/optimizer/div" stack_frame_id=218}
  %sqrt.46 = bf16[32,1024,512]{2,1,0:T(8,128)(2,1)} sqrt(%div.324), metadata={op_name="jit(train_step)/train_step/optimizer/sqrt" stack_frame_id=220}
  %constant.1359 = bf16[]{:T(256)} constant(1.001e-08)
  %broadcast.491 = bf16[32,1024,512]{2,1,0:T(8,128)(2,1)} broadcast(%constant.1359), dimensions={}, metadata={op_name="broadcast.53"}
  %add.743 = bf16[32,1024,512]{2,1,0:T(8,128)(2,1)} add(%sqrt.46, %broadcast.491), metadata={op_name="jit(train_step)/train_step/optimizer/add" stack_frame_id=220}
  %convert_element_type.769 = f32[32,1024,512]{2,1,0:T(8,128)} convert(%add.743), metadata={op_name="jit(train_step)/train_step/optimizer/convert_element_type" stack_frame_id=221}
  %multiply.178 = f32[32,1024,512]{2,1,0:T(8,128)} multiply(%div.326, %convert_element_type.769), metadata={op_name="multiply.42"}
  %div.318 = f32[32,1024,512]{2,1,0:T(8,128)} divide(%add.785.clone.1, %multiply.178), metadata={op_name="jit(train_step)/train_step/optimizer/div" stack_frame_id=221}
  %constant.1420 = bf16[]{:T(256)} constant(0), metadata={op_name="jit(train_step)/train_step/forward_backward/transpose(jvp())/scatter-add" stack_frame_id=9}
  %broadcast.497 = bf16[32,1024,512]{2,1,0:T(8,128)(2,1)} broadcast(%constant.1420), dimensions={}, metadata={op_name="broadcast.74"}
  %mul.1625 = bf16[32,1024,512]{2,1,0:T(8,128)(2,1)} multiply(%param_0.831, %broadcast.497), metadata={op_name="jit(train_step)/train_step/optimizer/mul" stack_frame_id=223}
  %convert_element_type.768 = f32[32,1024,512]{2,1,0:T(8,128)} convert(%mul.1625), metadata={op_name="jit(train_step)/train_step/optimizer/convert_element_type" stack_frame_id=224}
  %add.738 = f32[32,1024,512]{2,1,0:T(8,128)} add(%div.318, %convert_element_type.768), metadata={op_name="jit(train_step)/train_step/optimizer/add" stack_frame_id=224}
  %constant.1346 = f32[]{:T(128)} constant(-1e-05)
  %broadcast.487 = f32[32,1024,512]{2,1,0:T(8,128)} broadcast(%constant.1346), dimensions={}, metadata={op_name="broadcast.48"}
  %mul.1621 = f32[32,1024,512]{2,1,0:T(8,128)} multiply(%add.738, %broadcast.487), metadata={op_name="jit(train_step)/train_step/optimizer/mul" stack_frame_id=226}
  %add.737 = f32[32,1024,512]{2,1,0:T(8,128)} add(%convert_element_type.771, %mul.1621), metadata={op_name="jit(train_step)/train_step/optimizer/add" stack_frame_id=187}
  %convert_element_type.767 = bf16[32,1024,512]{2,1,0:T(8,128)(2,1)} convert(%add.737), metadata={op_name="jit(train_step)/train_step/optimizer/convert_element_type" stack_frame_id=227}
  %param_6.233 = bf16[32,1024,512]{2,1,0:T(8,128)(2,1)} parameter(6)
  %convert_element_type.776.clone.1 = f32[32,1024,512]{2,1,0:T(8,128)} convert(%param_6.233), metadata={op_name="jit(train_step)/train_step/optimizer/convert_element_type" stack_frame_id=187}
  %param_8.31 = bf16[32,1024,512]{2,1,0:T(8,128)(2,1)S(1)} parameter(8)
  %mul.1692.clone.1.clone.1 = bf16[32,1024,512]{2,1,0:T(8,128)(2,1)} multiply(%param_8.31, %broadcast.521.clone.1), metadata={op_name="jit(train_step)/train_step/optimizer/mul" stack_frame_id=198}
  %convert_element_type.809.clone.1.clone.1 = f32[32,1024,512]{2,1,0:T(8,128)} convert(%mul.1692.clone.1.clone.1), metadata={op_name="jit(train_step)/train_step/optimizer/convert_element_type" stack_frame_id=198}
  %param_9.13 = f32[32,1024,512]{2,1,0:T(8,128)} parameter(9)
  %mul.1691.clone.1.clone.1 = f32[32,1024,512]{2,1,0:T(8,128)} multiply(%param_9.13, %broadcast.520.clone.1), metadata={op_name="jit(train_step)/train_step/optimizer/mul" stack_frame_id=199}
  %add.791.clone.1.clone.1 = f32[32,1024,512]{2,1,0:T(8,128)} add(%convert_element_type.809.clone.1.clone.1, %mul.1691.clone.1.clone.1), metadata={op_name="jit(train_step)/train_step/optimizer/add" stack_frame_id=198}
  %integer_pow.56.clone.1.clone.1 = bf16[32,1024,512]{2,1,0:T(8,128)(2,1)} multiply(%param_8.31, %param_8.31), metadata={op_name="jit(train_step)/train_step/optimizer/integer_pow" stack_frame_id=214}
  %mul.1690.clone.1.clone.1 = bf16[32,1024,512]{2,1,0:T(8,128)(2,1)} multiply(%integer_pow.56.clone.1.clone.1, %broadcast.519.clone.1), metadata={op_name="jit(train_step)/train_step/optimizer/mul" stack_frame_id=217}
  %param_7.127 = bf16[32,1024,512]{2,1,0:T(8,128)(2,1)} parameter(7)
  %add.790.clone.1.clone.1 = bf16[32,1024,512]{2,1,0:T(8,128)(2,1)} add(%mul.1690.clone.1.clone.1, %param_7.127), metadata={op_name="jit(train_step)/train_step/optimizer/add" stack_frame_id=217}
  %div.325.clone.1 = bf16[32,1024,512]{2,1,0:T(8,128)(2,1)} divide(%add.790.clone.1.clone.1, %div.328), metadata={op_name="jit(train_step)/train_step/optimizer/div" stack_frame_id=218}
  %sqrt.47.clone.1 = bf16[32,1024,512]{2,1,0:T(8,128)(2,1)} sqrt(%div.325.clone.1), metadata={op_name="jit(train_step)/train_step/optimizer/sqrt" stack_frame_id=220}
  %add.745.clone.1 = bf16[32,1024,512]{2,1,0:T(8,128)(2,1)} add(%sqrt.47.clone.1, %broadcast.491), metadata={op_name="jit(train_step)/train_step/optimizer/add" stack_frame_id=220}
  %convert_element_type.774.clone.1 = f32[32,1024,512]{2,1,0:T(8,128)} convert(%add.745.clone.1), metadata={op_name="jit(train_step)/train_step/optimizer/convert_element_type" stack_frame_id=221}
  %multiply.179.clone.1 = f32[32,1024,512]{2,1,0:T(8,128)} multiply(%div.326, %convert_element_type.774.clone.1), metadata={op_name="multiply.39"}
  %div.321.clone.1 = f32[32,1024,512]{2,1,0:T(8,128)} divide(%add.791.clone.1.clone.1, %multiply.179.clone.1), metadata={op_name="jit(train_step)/train_step/optimizer/div" stack_frame_id=221}
  %mul.1628.clone.1 = bf16[32,1024,512]{2,1,0:T(8,128)(2,1)} multiply(%param_6.233, %broadcast.497), metadata={op_name="jit(train_step)/train_step/optimizer/mul" stack_frame_id=223}
  %convert_element_type.773.clone.1 = f32[32,1024,512]{2,1,0:T(8,128)} convert(%mul.1628.clone.1), metadata={op_name="jit(train_step)/train_step/optimizer/convert_element_type" stack_frame_id=224}
  %add.741.clone.1 = f32[32,1024,512]{2,1,0:T(8,128)} add(%div.321.clone.1, %convert_element_type.773.clone.1), metadata={op_name="jit(train_step)/train_step/optimizer/add" stack_frame_id=224}
  %mul.1623.clone.1 = f32[32,1024,512]{2,1,0:T(8,128)} multiply(%add.741.clone.1, %broadcast.487), metadata={op_name="jit(train_step)/train_step/optimizer/mul" stack_frame_id=226}
  %add.740.clone.1 = f32[32,1024,512]{2,1,0:T(8,128)} add(%convert_element_type.776.clone.1, %mul.1623.clone.1), metadata={op_name="jit(train_step)/train_step/optimizer/add" stack_frame_id=187}
  %convert_element_type.772.clone.1 = bf16[32,1024,512]{2,1,0:T(8,128)(2,1)} convert(%add.740.clone.1), metadata={op_name="jit(train_step)/train_step/optimizer/convert_element_type" stack_frame_id=227}
  ROOT %tuple.257 = (bf16[32,1024,512]{2,1,0:T(8,128)(2,1)}, bf16[32,1024,512]{2,1,0:T(8,128)(2,1)}, f32[32,1024,512]{2,1,0:T(8,128)}, bf16[32,1024,512]{2,1,0:T(8,128)(2,1)}, bf16[32,1024,512]{2,1,0:T(8,128)(2,1)}, /*index=5*/f32[32,1024,512]{2,1,0:T(8,128)}) tuple(%convert_element_type.767, %add.784.clone.1, %add.785.clone.1, %convert_element_type.772.clone.1, %add.790.clone.1.clone.1, /*index=5*/%add.791.clone.1.clone.1)
}

%region_38.45 (reduce_sum.301: f32[], reduce_sum.302: f32[]) -> f32[] {
  %reduce_sum.301 = f32[]{:T(128)} parameter(0), metadata={op_name="jit(train_step)/train_step/forward_backward/transpose(jvp())/reduce_sum"}
  %reduce_sum.302 = f32[]{:T(128)} parameter(1), metadata={op_name="jit(train_step)/train_step/forward_backward/transpose(jvp())/reduce_sum"}
  ROOT %reduce_sum.303 = f32[]{:T(128)} add(%reduce_sum.301, %reduce_sum.302), metadata={op_name="jit(train_step)/train_step/forward_backward/transpose(jvp())/reduce_sum" stack_frame_id=47}, backend_config={"flag_configs":[],"scoped_memory_configs":[],"used_scoped_memory_configs":[],"aliasing_operands":{"lists":[]}}
}

%fused_computation.277 (param_0.825: f32[4,8192,128], param_1.987: f32[8192]) -> f32[64] {
  %param_1.987 = f32[8192]{0:T(1024)} parameter(1)
  %mul.1638 = f32[4,8192,64]{2,1,0:T(8,128)} broadcast(%param_1.987), dimensions={1}, metadata={op_name="jit(train_step)/train_step/forward_backward/jvp()/mul" stack_frame_id=47}
  %param_0.825 = f32[4,8192,128]{2,1,0:T(8,128)S(1)} parameter(0)
  %slice.218 = f32[4,8192,64]{2,1,0:T(8,128)} slice(%param_0.825), slice={[0:4], [0:8192], [0:64]}, metadata={op_name="jit(train_step)/train_step/forward_backward/transpose(jvp())/split" stack_frame_id=48}
  %slice.217 = f32[4,8192,64]{2,1,0:T(8,128)} slice(%param_0.825), slice={[0:4], [0:8192], [64:128]}, metadata={op_name="jit(train_step)/train_step/forward_backward/transpose(jvp())/split" stack_frame_id=48}
  %add_any.261 = f32[4,8192,64]{2,1,0:T(8,128)} add(%slice.218, %slice.217), metadata={op_name="jit(train_step)/train_step/forward_backward/transpose(jvp())/add_any" stack_frame_id=48}
  %mul.1633 = f32[4,8192,64]{2,1,0:T(8,128)} multiply(%mul.1638, %add_any.261), metadata={op_name="jit(train_step)/train_step/forward_backward/transpose(jvp())/mul" stack_frame_id=47}
  %constant.1413 = f32[]{:T(128)} constant(0)
  ROOT %reduce.64 = f32[64]{0:T(128)} reduce(%mul.1633, %constant.1413), dimensions={0,1}, to_apply=%region_38.45, metadata={op_name="jit(train_step)/train_step/forward_backward/transpose(jvp())/reduce_sum" stack_frame_id=47}
}

%fused_computation.280 (param_0.756: bf16[4,8192,128], param_1.867: bf16[4,8192,128], param_2.650: f32[4,8192,64]) -> f32[4,8192,128] {
  %param_1.867 = bf16[4,8192,128]{2,1,0:T(8,128)(2,1)} parameter(1)
  %convert_element_type.780 = f32[4,8192,128]{2,1,0:T(8,128)} convert(%param_1.867), metadata={op_name="jit(train_step)/train_step/forward_backward/transpose(jvp())/convert_element_type" stack_frame_id=52}
  %param_2.650 = f32[4,8192,64]{2,1,0:T(8,128)} parameter(2)
  %constant.1336 = f32[]{:T(128)} constant(-inf)
  %pad.136 = f32[4,8192,128]{2,1,0:T(8,128)} pad(%param_2.650, %constant.1336), padding=0_0x0_0x0_64, metadata={op_name="jit(train_step)/train_step/forward_backward/jvp()/concatenate" stack_frame_id=48}
  %pad.135 = f32[4,8192,128]{2,1,0:T(8,128)} pad(%param_2.650, %constant.1336), padding=0_0x0_0x64_0, metadata={op_name="jit(train_step)/train_step/forward_backward/jvp()/concatenate" stack_frame_id=48}
  %maximum.33 = f32[4,8192,128]{2,1,0:T(8,128)} maximum(%pad.136, %pad.135), metadata={op_name="jit(train_step)/train_step/forward_backward/jvp()/concatenate" stack_frame_id=48}
  %cos.16 = f32[4,8192,128]{2,1,0:T(8,128)} cosine(%maximum.33), metadata={op_name="jit(train_step)/train_step/forward_backward/jvp()/cos" stack_frame_id=49}
  %mul.1635 = f32[4,8192,128]{2,1,0:T(8,128)} multiply(%convert_element_type.780, %cos.16), metadata={op_name="jit(train_step)/train_step/forward_backward/transpose(jvp())/mul" stack_frame_id=51}
  %param_0.756 = bf16[4,8192,128]{2,1,0:T(8,128)(2,1)} parameter(0)
  %convert_element_type.779 = f32[4,8192,128]{2,1,0:T(8,128)} convert(%param_0.756), metadata={op_name="jit(train_step)/train_step/forward_backward/transpose(jvp())/convert_element_type" stack_frame_id=50}
  %neg.118 = f32[4,8192,128]{2,1,0:T(8,128)} negate(%convert_element_type.779), metadata={op_name="jit(train_step)/train_step/forward_backward/transpose(jvp())/neg" stack_frame_id=49}
  %sin.16 = f32[4,8192,128]{2,1,0:T(8,128)} sine(%maximum.33), metadata={op_name="jit(train_step)/train_step/forward_backward/jvp()/sin" stack_frame_id=51}
  %mul.1634 = f32[4,8192,128]{2,1,0:T(8,128)} multiply(%neg.118, %sin.16), metadata={op_name="jit(train_step)/train_step/forward_backward/transpose(jvp())/mul" stack_frame_id=49}
  ROOT %add_any.262 = f32[4,8192,128]{2,1,0:T(8,128)S(1)} add(%mul.1635, %mul.1634), metadata={op_name="jit(train_step)/train_step/forward_backward/transpose(jvp())/add_any" stack_frame_id=49}
}

%fused_computation.281 (param_0.745: f32[4,1,8192,64]) -> (bf16[4,1,8192,128], bf16[4,1,8192,128]) {
  %param_0.745 = f32[4,1,8192,64]{3,2,0,1:T(8,128)S(1)} parameter(0)
  %constant.1337 = f32[]{:T(128)} constant(-inf)
  %pad.128 = f32[4,1,8192,128]{3,2,0,1:T(8,128)} pad(%param_0.745, %constant.1337), padding=0_0x0_0x0_0x0_64, metadata={op_name="jit(train_step)/train_step/forward_backward/jvp()/concatenate" stack_frame_id=48}
  %pad.127 = f32[4,1,8192,128]{3,2,0,1:T(8,128)} pad(%param_0.745, %constant.1337), padding=0_0x0_0x0_0x64_0, metadata={op_name="jit(train_step)/train_step/forward_backward/jvp()/concatenate" stack_frame_id=48}
  %maximum.29 = f32[4,1,8192,128]{3,2,0,1:T(8,128)} maximum(%pad.128, %pad.127), metadata={op_name="jit(train_step)/train_step/forward_backward/jvp()/concatenate" stack_frame_id=48}
  %sin.13 = f32[4,1,8192,128]{3,2,0,1:T(8,128)} sine(%maximum.29), metadata={op_name="jit(train_step)/train_step/forward_backward/jvp()/sin" stack_frame_id=51}
  %convert_element_type.781 = bf16[4,1,8192,128]{3,2,0,1:T(8,128)(2,1)} convert(%sin.13), metadata={op_name="jit(train_step)/train_step/forward_backward/jvp()/convert_element_type" stack_frame_id=52}
  %cos.13.clone.1 = f32[4,1,8192,128]{3,2,0,1:T(8,128)} cosine(%maximum.29), metadata={op_name="jit(train_step)/train_step/forward_backward/jvp()/cos" stack_frame_id=49}
  %convert_element_type.782.clone.1 = bf16[4,1,8192,128]{3,2,0,1:T(8,128)(2,1)} convert(%cos.13.clone.1), metadata={op_name="jit(train_step)/train_step/forward_backward/jvp()/convert_element_type" stack_frame_id=50}
  ROOT %tuple.250 = (bf16[4,1,8192,128]{3,2,0,1:T(8,128)(2,1)}, bf16[4,1,8192,128]{3,2,0,1:T(8,128)(2,1)}) tuple(%convert_element_type.781, %convert_element_type.782.clone.1)
}

%fused_computation.286 (param_0.761: f32[4,8192,64]) -> (bf16[4,8192,128], bf16[4,8192,128]) {
  %param_0.761 = f32[4,8192,64]{2,1,0:T(8,128)S(1)} parameter(0)
  %constant.1338 = f32[]{:T(128)} constant(-inf)
  %pad.148 = f32[4,8192,128]{2,1,0:T(8,128)} pad(%param_0.761, %constant.1338), padding=0_0x0_0x0_64, metadata={op_name="jit(train_step)/train_step/forward_backward/jvp()/concatenate" stack_frame_id=48}
  %pad.147 = f32[4,8192,128]{2,1,0:T(8,128)} pad(%param_0.761, %constant.1338), padding=0_0x0_0x64_0, metadata={op_name="jit(train_step)/train_step/forward_backward/jvp()/concatenate" stack_frame_id=48}
  %maximum.39 = f32[4,8192,128]{2,1,0:T(8,128)} maximum(%pad.148, %pad.147), metadata={op_name="jit(train_step)/train_step/forward_backward/jvp()/concatenate" stack_frame_id=48}
  %sin.18 = f32[4,8192,128]{2,1,0:T(8,128)} sine(%maximum.39), metadata={op_name="jit(train_step)/train_step/forward_backward/jvp()/sin" stack_frame_id=51}
  %convert_element_type.784 = bf16[4,8192,128]{2,1,0:T(8,128)(2,1)} convert(%sin.18), metadata={op_name="jit(train_step)/train_step/forward_backward/jvp()/convert_element_type" stack_frame_id=52}
  %cos.18.clone.1 = f32[4,8192,128]{2,1,0:T(8,128)} cosine(%maximum.39), metadata={op_name="jit(train_step)/train_step/forward_backward/jvp()/cos" stack_frame_id=49}
  %convert_element_type.783.clone.1 = bf16[4,8192,128]{2,1,0:T(8,128)(2,1)} convert(%cos.18.clone.1), metadata={op_name="jit(train_step)/train_step/forward_backward/jvp()/convert_element_type" stack_frame_id=50}
  ROOT %tuple.249 = (bf16[4,8192,128]{2,1,0:T(8,128)(2,1)}, bf16[4,8192,128]{2,1,0:T(8,128)(2,1)}) tuple(%convert_element_type.784, %convert_element_type.783.clone.1)
}

%fused_computation.287 (param_0.763: f32[64], param_1.875: f32[8192]) -> (f32[4,8192,64], f32[4,1,8192,64]) {
  %param_1.875 = f32[8192]{0:T(1024)S(1)} parameter(1)
  %mul.1639 = f32[4,8192,64]{2,1,0:T(8,128)} broadcast(%param_1.875), dimensions={1}, metadata={op_name="jit(train_step)/train_step/forward_backward/jvp()/mul" stack_frame_id=47}
  %param_0.763 = f32[64]{0:T(128)} parameter(0)
  %mul.1637 = f32[4,8192,64]{2,1,0:T(8,128)} broadcast(%param_0.763), dimensions={2}, metadata={op_name="jit(train_step)/train_step/forward_backward/jvp()/mul" stack_frame_id=47}
  %mul.1636 = f32[4,8192,64]{2,1,0:T(8,128)} multiply(%mul.1639, %mul.1637), metadata={op_name="jit(train_step)/train_step/forward_backward/jvp()/mul" stack_frame_id=47}
  %bitcast.197.clone.1 = f32[4,1,8192,64]{3,2,0,1:T(8,128)S(1)} bitcast(%mul.1636), metadata={op_name="jit(train_step)/train_step/forward_backward/jvp()/concatenate" stack_frame_id=48}
  ROOT %tuple.251 = (f32[4,8192,64]{2,1,0:T(8,128)}, f32[4,1,8192,64]{3,2,0,1:T(8,128)S(1)}) tuple(%mul.1636, %bitcast.197.clone.1)
}

%fused_computation.290 (param_0.774: s32[4,8192]) -> s32[1,64,4,128] {
  %param_0.774 = s32[4,8192]{1,0:T(4,128)S(1)} parameter(0)
  %constant.1430 = s32[]{:T(128)} constant(0)
  %lt.132 = s32[4,8192]{1,0:T(4,128)} broadcast(%constant.1430), dimensions={}, metadata={op_name="jit(train_step)/train_step/forward_backward/jvp()/lt" stack_frame_id=9}
  %lt.131 = pred[4,8192]{1,0:T(4,128)(4,1)} compare(%param_0.774, %lt.132), direction=LT, metadata={op_name="jit(train_step)/train_step/forward_backward/jvp()/lt" stack_frame_id=9}
  %constant.1429 = s32[]{:T(128)} constant(128256)
  %add.763 = s32[4,8192]{1,0:T(4,128)} broadcast(%constant.1429), dimensions={}, metadata={op_name="jit(train_step)/train_step/forward_backward/jvp()/add" stack_frame_id=9}
  %add.749 = s32[4,8192]{1,0:T(4,128)} add(%param_0.774, %add.763), metadata={op_name="jit(train_step)/train_step/forward_backward/jvp()/add" stack_frame_id=9}
  %select_n.153 = s32[4,8192]{1,0:T(4,128)} select(%lt.131, %add.749, %param_0.774), metadata={op_name="jit(train_step)/train_step/forward_backward/jvp()/select_n" stack_frame_id=9}
  ROOT %bitcast.198 = s32[1,64,4,128]{3,2,1,0:T(4,128)S(1)} bitcast(%select_n.153)
}

%fused_computation.291 (param_0.799: f32[4,8192], param_1.919: f32[4,8192]) -> f32[4,8192] {
  %param_0.799 = f32[4,8192]{1,0:T(4,128)S(1)} parameter(0)
  %param_1.919 = f32[4,8192]{1,0:T(4,128)S(1)} parameter(1)
  %constant.1410 = f32[]{:T(128)} constant(0.000244140625)
  %broadcast.506 = f32[4,8192]{1,0:T(4,128)} broadcast(%constant.1410), dimensions={}, metadata={op_name="broadcast.240"}
  %div.340 = f32[4,8192]{1,0:T(4,128)} multiply(%param_1.919, %broadcast.506), metadata={op_name="jit(train_step)/train_step/forward_backward/jvp()/div" stack_frame_id=120}
  %constant.1408 = f32[]{:T(128)} constant(1e-05)
  %add.767 = f32[4,8192]{1,0:T(4,128)} broadcast(%constant.1408), dimensions={}, metadata={op_name="jit(train_step)/train_step/forward_backward/jvp()/add" stack_frame_id=120}
  %add.766 = f32[4,8192]{1,0:T(4,128)} add(%div.340, %add.767), metadata={op_name="jit(train_step)/train_step/forward_backward/jvp()/add" stack_frame_id=120}
  %rsqrt.86 = f32[4,8192]{1,0:T(4,128)} rsqrt(%add.766), metadata={op_name="jit(train_step)/train_step/forward_backward/jvp()/rsqrt" stack_frame_id=121}
  %div.331 = f32[4,8192]{1,0:T(4,128)} divide(%rsqrt.86, %add.766), metadata={op_name="jit(train_step)/train_step/forward_backward/jvp()/div" stack_frame_id=121}
  %constant.1344 = f32[]{:T(128)} constant(-0.5)
  %mul.1652 = f32[4,8192]{1,0:T(4,128)} broadcast(%constant.1344), dimensions={}, metadata={op_name="jit(train_step)/train_step/forward_backward/jvp()/mul" stack_frame_id=121}
  %mul.1647 = f32[4,8192]{1,0:T(4,128)} multiply(%div.331, %mul.1652), metadata={op_name="jit(train_step)/train_step/forward_backward/jvp()/mul" stack_frame_id=121}
  %mul.1646 = f32[4,8192]{1,0:T(4,128)} multiply(%param_0.799, %mul.1647), metadata={op_name="jit(train_step)/train_step/forward_backward/transpose(jvp())/mul" stack_frame_id=121}
  ROOT %div.330 = f32[4,8192]{1,0:T(4,128)S(1)} multiply(%mul.1646, %broadcast.506), metadata={op_name="jit(train_step)/train_step/forward_backward/transpose(jvp())/div" stack_frame_id=120}
}

%fused_computation.293 (param_0.798: f32[4,8192]) -> f32[4,8192] {
  %param_0.798 = f32[4,8192]{1,0:T(4,128)S(1)} parameter(0)
  %constant.1411 = f32[]{:T(128)} constant(0.000244140625)
  %broadcast.504 = f32[4,8192]{1,0:T(4,128)} broadcast(%constant.1411), dimensions={}, metadata={op_name="broadcast.240"}
  %div.336 = f32[4,8192]{1,0:T(4,128)} multiply(%param_0.798, %broadcast.504), metadata={op_name="jit(train_step)/train_step/forward_backward/jvp()/div" stack_frame_id=120}
  %constant.1409 = f32[]{:T(128)} constant(1e-05)
  %add.762 = f32[4,8192]{1,0:T(4,128)} broadcast(%constant.1409), dimensions={}, metadata={op_name="jit(train_step)/train_step/forward_backward/jvp()/add" stack_frame_id=120}
  %add.754 = f32[4,8192]{1,0:T(4,128)} add(%div.336, %add.762), metadata={op_name="jit(train_step)/train_step/forward_backward/jvp()/add" stack_frame_id=120}
  ROOT %rsqrt.84 = f32[4,8192]{1,0:T(4,128)S(1)} rsqrt(%add.754), metadata={op_name="jit(train_step)/train_step/forward_backward/jvp()/rsqrt" stack_frame_id=121}
}

%fused_computation.294 (param_0.786: s32[32768]) -> s32[32768] {
  %constant.1334 = s32[] constant(0), metadata={op_name="jit(train_step)/train_step/forward_backward/jvp()/gather" stack_frame_id=9}
  %broadcast.501 = s32[32768]{0:T(1024)} broadcast(%constant.1334), dimensions={}, metadata={op_name="jit(train_step)/train_step/forward_backward/jvp()/gather" stack_frame_id=9}
  %param_0.786 = s32[32768]{0:T(1024)S(1)} parameter(0)
  %constant.1332 = s32[] constant(32767), metadata={op_name="jit(train_step)/train_step/forward_backward/transpose(jvp())/scatter-add" stack_frame_id=9}
  %broadcast.499 = s32[32768]{0:T(1024)} broadcast(%constant.1332), dimensions={}, metadata={op_name="jit(train_step)/train_step/forward_backward/transpose(jvp())/scatter-add" stack_frame_id=9}
  ROOT %clamp.5 = s32[32768]{0:T(1024)} clamp(%broadcast.501, %param_0.786, %broadcast.499), metadata={op_name="jit(train_step)/train_step/forward_backward/transpose(jvp())/scatter-add" stack_frame_id=9}
}

%fused_computation.295 (param_0.787: s32[32768]) -> s32[32768] {
  %constant.1335 = s32[] constant(0), metadata={op_name="jit(train_step)/train_step/forward_backward/jvp()/gather" stack_frame_id=9}
  %broadcast.502 = s32[32768]{0:T(1024)} broadcast(%constant.1335), dimensions={}, metadata={op_name="jit(train_step)/train_step/forward_backward/jvp()/gather" stack_frame_id=9}
  %param_0.787 = s32[32768]{0:T(1024)S(1)} parameter(0)
  %constant.1333 = s32[] constant(128255), metadata={op_name="jit(train_step)/train_step/forward_backward/jvp()/gather" stack_frame_id=9}
  %broadcast.500 = s32[32768]{0:T(1024)} broadcast(%constant.1333), dimensions={}, metadata={op_name="jit(train_step)/train_step/forward_backward/jvp()/gather" stack_frame_id=9}
  ROOT %clamp.6 = s32[32768]{0:T(1024)S(1)} clamp(%broadcast.502, %param_0.787, %broadcast.500), metadata={op_name="jit(train_step)/train_step/forward_backward/jvp()/gather" stack_frame_id=9}
}

%fused_computation.296 (param_0.843: bf16[32,512], param_1.1005: f32[], param_2.784: bf16[], param_3.477: bf16[32,512], param_4.306: bf16[32,512], param_5.254: f32[32,512], param_6.236: bf16[32,512], param_7.132: bf16[32,512], param_8.39: bf16[32,512], param_9.20: f32[32,512]) -> (bf16[32,512], bf16[32,512], f32[32,512], bf16[32,512], bf16[32,512], /*index=5*/f32[32,512]) {
  %param_0.843 = bf16[32,512]{1,0:T(8,128)(2,1)} parameter(0)
  %convert_element_type.789 = f32[32,512]{1,0:T(8,128)} convert(%param_0.843), metadata={op_name="jit(train_step)/train_step/optimizer/convert_element_type" stack_frame_id=187}
  %param_4.306 = bf16[32,512]{1,0:T(8,128)(2,1)S(1)} parameter(4)
  %constant.1445.clone.1 = bf16[]{:T(256)} constant(0.1001)
  %broadcast.533.clone.1 = bf16[32,512]{1,0:T(8,128)(2,1)} broadcast(%constant.1445.clone.1), dimensions={}, metadata={op_name="broadcast.69"}
  %mul.1695.clone.1 = bf16[32,512]{1,0:T(8,128)(2,1)} multiply(%param_4.306, %broadcast.533.clone.1), metadata={op_name="jit(train_step)/train_step/optimizer/mul" stack_frame_id=198}
  %convert_element_type.810.clone.1 = f32[32,512]{1,0:T(8,128)} convert(%mul.1695.clone.1), metadata={op_name="jit(train_step)/train_step/optimizer/convert_element_type" stack_frame_id=198}
  %param_5.254 = f32[32,512]{1,0:T(8,128)S(1)} parameter(5)
  %constant.1444.clone.1 = f32[]{:T(128)} constant(0.9)
  %broadcast.532.clone.1 = f32[32,512]{1,0:T(8,128)} broadcast(%constant.1444.clone.1), dimensions={}, metadata={op_name="broadcast.68"}
  %mul.1694.clone.1 = f32[32,512]{1,0:T(8,128)} multiply(%param_5.254, %broadcast.532.clone.1), metadata={op_name="jit(train_step)/train_step/optimizer/mul" stack_frame_id=199}
  %add.793.clone.1 = f32[32,512]{1,0:T(8,128)S(1)} add(%convert_element_type.810.clone.1, %mul.1694.clone.1), metadata={op_name="jit(train_step)/train_step/optimizer/add" stack_frame_id=198}
  %param_1.1005 = f32[]{:T(128)S(6)} parameter(1)
  %div.343 = f32[32,512]{1,0:T(8,128)} broadcast(%param_1.1005), dimensions={}, metadata={op_name="jit(train_step)/train_step/optimizer/div" stack_frame_id=207}
  %integer_pow.57.clone.1 = bf16[32,512]{1,0:T(8,128)(2,1)} multiply(%param_4.306, %param_4.306), metadata={op_name="jit(train_step)/train_step/optimizer/integer_pow" stack_frame_id=214}
  %constant.1443.clone.1 = bf16[]{:T(256)} constant(0.0009995)
  %broadcast.531.clone.1 = bf16[32,512]{1,0:T(8,128)(2,1)} broadcast(%constant.1443.clone.1), dimensions={}, metadata={op_name="broadcast.60"}
  %mul.1693.clone.1 = bf16[32,512]{1,0:T(8,128)(2,1)} multiply(%integer_pow.57.clone.1, %broadcast.531.clone.1), metadata={op_name="jit(train_step)/train_step/optimizer/mul" stack_frame_id=217}
  %param_3.477 = bf16[32,512]{1,0:T(8,128)(2,1)S(1)} parameter(3)
  %add.792.clone.1 = bf16[32,512]{1,0:T(8,128)(2,1)S(1)} add(%mul.1693.clone.1, %param_3.477), metadata={op_name="jit(train_step)/train_step/optimizer/add" stack_frame_id=217}
  %param_2.784 = bf16[]{:T(256)S(6)} parameter(2)
  %div.345 = bf16[32,512]{1,0:T(8,128)(2,1)} broadcast(%param_2.784), dimensions={}, metadata={op_name="jit(train_step)/train_step/optimizer/div" stack_frame_id=218}
  %div.341 = bf16[32,512]{1,0:T(8,128)(2,1)} divide(%add.792.clone.1, %div.345), metadata={op_name="jit(train_step)/train_step/optimizer/div" stack_frame_id=218}
  %sqrt.48 = bf16[32,512]{1,0:T(8,128)(2,1)} sqrt(%div.341), metadata={op_name="jit(train_step)/train_step/optimizer/sqrt" stack_frame_id=220}
  %constant.1358 = bf16[]{:T(256)} constant(1.001e-08)
  %broadcast.511 = bf16[32,512]{1,0:T(8,128)(2,1)} broadcast(%constant.1358), dimensions={}, metadata={op_name="broadcast.55"}
  %add.768 = bf16[32,512]{1,0:T(8,128)(2,1)} add(%sqrt.48, %broadcast.511), metadata={op_name="jit(train_step)/train_step/optimizer/add" stack_frame_id=220}
  %convert_element_type.787 = f32[32,512]{1,0:T(8,128)} convert(%add.768), metadata={op_name="jit(train_step)/train_step/optimizer/convert_element_type" stack_frame_id=221}
  %multiply.180 = f32[32,512]{1,0:T(8,128)} multiply(%div.343, %convert_element_type.787), metadata={op_name="multiply.38"}
  %div.337 = f32[32,512]{1,0:T(8,128)} divide(%add.793.clone.1, %multiply.180), metadata={op_name="jit(train_step)/train_step/optimizer/div" stack_frame_id=221}
  %constant.1418 = bf16[]{:T(256)} constant(0), metadata={op_name="jit(train_step)/train_step/forward_backward/transpose(jvp())/scatter-add" stack_frame_id=9}
  %broadcast.517 = bf16[32,512]{1,0:T(8,128)(2,1)} broadcast(%constant.1418), dimensions={}, metadata={op_name="broadcast.77"}
  %mul.1653 = bf16[32,512]{1,0:T(8,128)(2,1)} multiply(%param_0.843, %broadcast.517), metadata={op_name="jit(train_step)/train_step/optimizer/mul" stack_frame_id=223}
  %convert_element_type.786 = f32[32,512]{1,0:T(8,128)} convert(%mul.1653), metadata={op_name="jit(train_step)/train_step/optimizer/convert_element_type" stack_frame_id=224}
  %add.756 = f32[32,512]{1,0:T(8,128)} add(%div.337, %convert_element_type.786), metadata={op_name="jit(train_step)/train_step/optimizer/add" stack_frame_id=224}
  %constant.1345 = f32[]{:T(128)} constant(-1e-05)
  %broadcast.507 = f32[32,512]{1,0:T(8,128)} broadcast(%constant.1345), dimensions={}, metadata={op_name="broadcast.50"}
  %mul.1648 = f32[32,512]{1,0:T(8,128)} multiply(%add.756, %broadcast.507), metadata={op_name="jit(train_step)/train_step/optimizer/mul" stack_frame_id=226}
  %add.755 = f32[32,512]{1,0:T(8,128)} add(%convert_element_type.789, %mul.1648), metadata={op_name="jit(train_step)/train_step/optimizer/add" stack_frame_id=187}
  %convert_element_type.785 = bf16[32,512]{1,0:T(8,128)(2,1)} convert(%add.755), metadata={op_name="jit(train_step)/train_step/optimizer/convert_element_type" stack_frame_id=227}
  %param_6.236 = bf16[32,512]{1,0:T(8,128)(2,1)} parameter(6)
  %convert_element_type.794.clone.1 = f32[32,512]{1,0:T(8,128)} convert(%param_6.236), metadata={op_name="jit(train_step)/train_step/optimizer/convert_element_type" stack_frame_id=187}
  %param_8.39 = bf16[32,512]{1,0:T(8,128)(2,1)S(1)} parameter(8)
  %mul.1710.clone.1.clone.1 = bf16[32,512]{1,0:T(8,128)(2,1)} multiply(%param_8.39, %broadcast.533.clone.1), metadata={op_name="jit(train_step)/train_step/optimizer/mul" stack_frame_id=198}
  %convert_element_type.814.clone.1.clone.1 = f32[32,512]{1,0:T(8,128)} convert(%mul.1710.clone.1.clone.1), metadata={op_name="jit(train_step)/train_step/optimizer/convert_element_type" stack_frame_id=198}
  %param_9.20 = f32[32,512]{1,0:T(8,128)S(1)} parameter(9)
  %mul.1709.clone.1.clone.1 = f32[32,512]{1,0:T(8,128)} multiply(%param_9.20, %broadcast.532.clone.1), metadata={op_name="jit(train_step)/train_step/optimizer/mul" stack_frame_id=199}
  %add.801.clone.1.clone.1 = f32[32,512]{1,0:T(8,128)S(1)} add(%convert_element_type.814.clone.1.clone.1, %mul.1709.clone.1.clone.1), metadata={op_name="jit(train_step)/train_step/optimizer/add" stack_frame_id=198}
  %integer_pow.61.clone.1.clone.1 = bf16[32,512]{1,0:T(8,128)(2,1)} multiply(%param_8.39, %param_8.39), metadata={op_name="jit(train_step)/train_step/optimizer/integer_pow" stack_frame_id=214}
  %mul.1708.clone.1.clone.1 = bf16[32,512]{1,0:T(8,128)(2,1)} multiply(%integer_pow.61.clone.1.clone.1, %broadcast.531.clone.1), metadata={op_name="jit(train_step)/train_step/optimizer/mul" stack_frame_id=217}
  %param_7.132 = bf16[32,512]{1,0:T(8,128)(2,1)S(1)} parameter(7)
  %add.800.clone.1.clone.1 = bf16[32,512]{1,0:T(8,128)(2,1)S(1)} add(%mul.1708.clone.1.clone.1, %param_7.132), metadata={op_name="jit(train_step)/train_step/optimizer/add" stack_frame_id=217}
  %div.342.clone.1 = bf16[32,512]{1,0:T(8,128)(2,1)} divide(%add.800.clone.1.clone.1, %div.345), metadata={op_name="jit(train_step)/train_step/optimizer/div" stack_frame_id=218}
  %sqrt.49.clone.1 = bf16[32,512]{1,0:T(8,128)(2,1)} sqrt(%div.342.clone.1), metadata={op_name="jit(train_step)/train_step/optimizer/sqrt" stack_frame_id=220}
  %add.770.clone.1 = bf16[32,512]{1,0:T(8,128)(2,1)} add(%sqrt.49.clone.1, %broadcast.511), metadata={op_name="jit(train_step)/train_step/optimizer/add" stack_frame_id=220}
  %convert_element_type.792.clone.1 = f32[32,512]{1,0:T(8,128)} convert(%add.770.clone.1), metadata={op_name="jit(train_step)/train_step/optimizer/convert_element_type" stack_frame_id=221}
  %multiply.181.clone.1 = f32[32,512]{1,0:T(8,128)} multiply(%div.343, %convert_element_type.792.clone.1), metadata={op_name="multiply.34"}
  %div.338.clone.1 = f32[32,512]{1,0:T(8,128)} divide(%add.801.clone.1.clone.1, %multiply.181.clone.1), metadata={op_name="jit(train_step)/train_step/optimizer/div" stack_frame_id=221}
  %mul.1656.clone.1 = bf16[32,512]{1,0:T(8,128)(2,1)} multiply(%param_6.236, %broadcast.517), metadata={op_name="jit(train_step)/train_step/optimizer/mul" stack_frame_id=223}
  %convert_element_type.791.clone.1 = f32[32,512]{1,0:T(8,128)} convert(%mul.1656.clone.1), metadata={op_name="jit(train_step)/train_step/optimizer/convert_element_type" stack_frame_id=224}
  %add.759.clone.1 = f32[32,512]{1,0:T(8,128)} add(%div.338.clone.1, %convert_element_type.791.clone.1), metadata={op_name="jit(train_step)/train_step/optimizer/add" stack_frame_id=224}
  %mul.1650.clone.1 = f32[32,512]{1,0:T(8,128)} multiply(%add.759.clone.1, %broadcast.507), metadata={op_name="jit(train_step)/train_step/optimizer/mul" stack_frame_id=226}
  %add.758.clone.1 = f32[32,512]{1,0:T(8,128)} add(%convert_element_type.794.clone.1, %mul.1650.clone.1), metadata={op_name="jit(train_step)/train_step/optimizer/add" stack_frame_id=187}
  %convert_element_type.790.clone.1 = bf16[32,512]{1,0:T(8,128)(2,1)} convert(%add.758.clone.1), metadata={op_name="jit(train_step)/train_step/optimizer/convert_element_type" stack_frame_id=227}
  ROOT %tuple.260 = (bf16[32,512]{1,0:T(8,128)(2,1)}, bf16[32,512]{1,0:T(8,128)(2,1)S(1)}, f32[32,512]{1,0:T(8,128)S(1)}, bf16[32,512]{1,0:T(8,128)(2,1)}, bf16[32,512]{1,0:T(8,128)(2,1)S(1)}, /*index=5*/f32[32,512]{1,0:T(8,128)S(1)}) tuple(%convert_element_type.785, %add.792.clone.1, %add.793.clone.1, %convert_element_type.790.clone.1, %add.800.clone.1.clone.1, /*index=5*/%add.801.clone.1.clone.1)
}

%fused_computation.302 () -> f32[8192] {
  %iota.74 = s32[8192]{0:T(1024)} iota(), iota_dimension=0, metadata={op_name="jit(train_step)/train_step/forward_backward/jvp()/iota" stack_frame_id=44}
  ROOT %convert_element_type.795 = f32[8192]{0:T(1024)S(1)} convert(%iota.74), metadata={op_name="jit(train_step)/train_step/forward_backward/jvp()/convert_element_type" stack_frame_id=46}
}

%fused_computation.303 (param_0.860: bf16[512], param_1.1023: f32[], param_2.798: bf16[], param_3.489: bf16[512], param_4.324: bf16[4096], param_5.285: s32[], param_6.194: f32[512]) -> (bf16[512], bf16[512], f32[512]) {
  %param_0.860 = bf16[512]{0:T(512)(128)(2,1)S(1)} parameter(0)
  %convert_element_type.801 = f32[512]{0:T(512)} convert(%param_0.860), metadata={op_name="jit(train_step)/train_step/forward_backward/jvp()/convert_element_type" stack_frame_id=123}
  %param_4.324 = bf16[4096]{0:T(1024)(128)(2,1)S(1)} parameter(4)
  %param_5.285 = s32[]{:T(128)S(6)} parameter(5)
  %dynamic-slice.177.clone.1 = bf16[512]{0:T(512)(128)(2,1)} dynamic-slice(%param_4.324, %param_5.285), dynamic_slice_sizes={512}, metadata={op_name="jit(train_step)/train_step/forward_backward/transpose(jvp())/reduce_sum" stack_frame_id=122}, backend_config={"flag_configs":[],"scoped_memory_configs":[],"indices_config":{"index_known_bits":[{"zeroes":"511","ones":"0","bitwidth":"32"}],"is_index_aligned":[false]},"used_scoped_memory_configs":[]}
  %constant.1464.clone.1 = bf16[]{:T(256)} constant(0.1001)
  %mul.1724.clone.1 = bf16[512]{0:T(512)(128)(2,1)} broadcast(%constant.1464.clone.1), dimensions={}, metadata={op_name="jit(train_step)/train_step/optimizer/mul" stack_frame_id=198}
  %mul.1723.clone.1 = bf16[512]{0:T(512)(128)(2,1)} multiply(%dynamic-slice.177.clone.1, %mul.1724.clone.1), metadata={op_name="jit(train_step)/train_step/optimizer/mul" stack_frame_id=198}
  %convert_element_type.815.clone.1 = f32[512]{0:T(512)} convert(%mul.1723.clone.1), metadata={op_name="jit(train_step)/train_step/optimizer/convert_element_type" stack_frame_id=198}
  %param_6.194 = f32[512]{0:T(512)S(1)} parameter(6)
  %constant.1463.clone.1 = f32[]{:T(128)} constant(0.9)
  %mul.1722.clone.1 = f32[512]{0:T(512)} broadcast(%constant.1463.clone.1), dimensions={}, metadata={op_name="jit(train_step)/train_step/optimizer/mul" stack_frame_id=199}
  %mul.1721.clone.1 = f32[512]{0:T(512)} multiply(%param_6.194, %mul.1722.clone.1), metadata={op_name="jit(train_step)/train_step/optimizer/mul" stack_frame_id=199}
  %add.805.clone.1 = f32[512]{0:T(512)S(1)} add(%convert_element_type.815.clone.1, %mul.1721.clone.1), metadata={op_name="jit(train_step)/train_step/optimizer/add" stack_frame_id=198}
  %param_1.1023 = f32[]{:T(128)S(6)} parameter(1)
  %div.349 = f32[512]{0:T(512)} broadcast(%param_1.1023), dimensions={}, metadata={op_name="jit(train_step)/train_step/optimizer/div" stack_frame_id=207}
  %integer_pow.63.clone.1 = bf16[512]{0:T(512)(128)(2,1)} multiply(%dynamic-slice.177.clone.1, %dynamic-slice.177.clone.1), metadata={op_name="jit(train_step)/train_step/optimizer/integer_pow" stack_frame_id=214}
  %constant.1462.clone.1 = bf16[]{:T(256)} constant(0.0009995)
  %mul.1720.clone.1 = bf16[512]{0:T(512)(128)(2,1)} broadcast(%constant.1462.clone.1), dimensions={}, metadata={op_name="jit(train_step)/train_step/optimizer/mul" stack_frame_id=217}
  %mul.1719.clone.1 = bf16[512]{0:T(512)(128)(2,1)} multiply(%integer_pow.63.clone.1, %mul.1720.clone.1), metadata={op_name="jit(train_step)/train_step/optimizer/mul" stack_frame_id=217}
  %param_3.489 = bf16[512]{0:T(512)(128)(2,1)S(1)} parameter(3)
  %add.804.clone.1 = bf16[512]{0:T(512)(128)(2,1)S(1)} add(%mul.1719.clone.1, %param_3.489), metadata={op_name="jit(train_step)/train_step/optimizer/add" stack_frame_id=217}
  %param_2.798 = bf16[]{:T(256)S(6)} parameter(2)
  %div.352 = bf16[512]{0:T(512)(128)(2,1)} broadcast(%param_2.798), dimensions={}, metadata={op_name="jit(train_step)/train_step/optimizer/div" stack_frame_id=218}
  %div.348 = bf16[512]{0:T(512)(128)(2,1)} divide(%add.804.clone.1, %div.352), metadata={op_name="jit(train_step)/train_step/optimizer/div" stack_frame_id=218}
  %sqrt.50 = bf16[512]{0:T(512)(128)(2,1)} sqrt(%div.348), metadata={op_name="jit(train_step)/train_step/optimizer/sqrt" stack_frame_id=220}
  %constant.1367 = bf16[]{:T(256)} constant(1.001e-08)
  %add.782 = bf16[512]{0:T(512)(128)(2,1)} broadcast(%constant.1367), dimensions={}, metadata={op_name="jit(train_step)/train_step/optimizer/add" stack_frame_id=220}
  %add.775 = bf16[512]{0:T(512)(128)(2,1)} add(%sqrt.50, %add.782), metadata={op_name="jit(train_step)/train_step/optimizer/add" stack_frame_id=220}
  %convert_element_type.798 = f32[512]{0:T(512)} convert(%add.775), metadata={op_name="jit(train_step)/train_step/optimizer/convert_element_type" stack_frame_id=221}
  %multiply.182 = f32[512]{0:T(512)} multiply(%div.349, %convert_element_type.798), metadata={op_name="multiply.32"}
  %div.347 = f32[512]{0:T(512)} divide(%add.805.clone.1, %multiply.182), metadata={op_name="jit(train_step)/train_step/optimizer/div" stack_frame_id=221}
  %constant.1428 = bf16[]{:T(256)} constant(0), metadata={op_name="jit(train_step)/train_step/forward_backward/transpose(jvp())/scatter-add" stack_frame_id=9}
  %mul.1672 = bf16[512]{0:T(512)(128)(2,1)} broadcast(%constant.1428), dimensions={}, metadata={op_name="jit(train_step)/train_step/optimizer/mul" stack_frame_id=223}
  %mul.1662 = bf16[512]{0:T(512)(128)(2,1)} multiply(%param_0.860, %mul.1672), metadata={op_name="jit(train_step)/train_step/optimizer/mul" stack_frame_id=223}
  %convert_element_type.797 = f32[512]{0:T(512)} convert(%mul.1662), metadata={op_name="jit(train_step)/train_step/optimizer/convert_element_type" stack_frame_id=224}
  %add.773 = f32[512]{0:T(512)} add(%div.347, %convert_element_type.797), metadata={op_name="jit(train_step)/train_step/optimizer/add" stack_frame_id=224}
  %constant.1355 = f32[]{:T(128)} constant(-1e-05)
  %mul.1661 = f32[512]{0:T(512)} broadcast(%constant.1355), dimensions={}, metadata={op_name="jit(train_step)/train_step/optimizer/mul" stack_frame_id=226}
  %mul.1659 = f32[512]{0:T(512)} multiply(%add.773, %mul.1661), metadata={op_name="jit(train_step)/train_step/optimizer/mul" stack_frame_id=226}
  %add.772 = f32[512]{0:T(512)} add(%convert_element_type.801, %mul.1659), metadata={op_name="jit(train_step)/train_step/optimizer/add" stack_frame_id=187}
  %convert_element_type.796 = bf16[512]{0:T(512)(128)(2,1)S(1)} convert(%add.772), metadata={op_name="jit(train_step)/train_step/optimizer/convert_element_type" stack_frame_id=227}
  ROOT %tuple.222 = (bf16[512]{0:T(512)(128)(2,1)S(1)}, bf16[512]{0:T(512)(128)(2,1)S(1)}, f32[512]{0:T(512)S(1)}) tuple(%convert_element_type.796, %add.804.clone.1, %add.805.clone.1)
}

%fused_computation.307 (param_0.817: f32[64], param_1.1020: f32[], param_2.794: f32[], param_3.487: f32[64], param_4.321: f32[64], param_5.280: f32[64]) -> (f32[64], f32[64], f32[64]) {
  %param_0.817 = f32[64]{0:T(128)} parameter(0)
  %param_4.321 = f32[64]{0:T(128)S(1)} parameter(4)
  %constant.1460.clone.1 = f32[]{:T(128)} constant(0.1)
  %mul.1718.clone.1 = f32[64]{0:T(128)} broadcast(%constant.1460.clone.1), dimensions={}, metadata={op_name="jit(train_step)/train_step/optimizer/mul" stack_frame_id=198}
  %mul.1716.clone.1 = f32[64]{0:T(128)} multiply(%param_4.321, %mul.1718.clone.1), metadata={op_name="jit(train_step)/train_step/optimizer/mul" stack_frame_id=198}
  %param_5.280 = f32[64]{0:T(128)} parameter(5)
  %constant.1461.clone.1 = f32[]{:T(128)} constant(0.9)
  %mul.1717.clone.1 = f32[64]{0:T(128)} broadcast(%constant.1461.clone.1), dimensions={}, metadata={op_name="jit(train_step)/train_step/optimizer/mul" stack_frame_id=199}
  %mul.1715.clone.1 = f32[64]{0:T(128)} multiply(%param_5.280, %mul.1717.clone.1), metadata={op_name="jit(train_step)/train_step/optimizer/mul" stack_frame_id=199}
  %add.803.clone.1 = f32[64]{0:T(128)S(1)} add(%mul.1716.clone.1, %mul.1715.clone.1), metadata={op_name="jit(train_step)/train_step/optimizer/add" stack_frame_id=198}
  %param_2.794 = f32[]{:T(128)S(6)} parameter(2)
  %div.354 = f32[64]{0:T(128)} broadcast(%param_2.794), dimensions={}, metadata={op_name="jit(train_step)/train_step/optimizer/div" stack_frame_id=207}
  %integer_pow.62.clone.1 = f32[64]{0:T(128)} multiply(%param_4.321, %param_4.321), metadata={op_name="jit(train_step)/train_step/optimizer/integer_pow" stack_frame_id=214}
  %constant.1458.clone.1 = f32[]{:T(128)} constant(0.001)
  %mul.1714.clone.1 = f32[64]{0:T(128)} broadcast(%constant.1458.clone.1), dimensions={}, metadata={op_name="jit(train_step)/train_step/optimizer/mul" stack_frame_id=217}
  %mul.1712.clone.1 = f32[64]{0:T(128)} multiply(%integer_pow.62.clone.1, %mul.1714.clone.1), metadata={op_name="jit(train_step)/train_step/optimizer/mul" stack_frame_id=217}
  %param_3.487 = f32[64]{0:T(128)S(1)} parameter(3)
  %constant.1459.clone.1 = f32[]{:T(128)} constant(0.999)
  %mul.1713.clone.1 = f32[64]{0:T(128)} broadcast(%constant.1459.clone.1), dimensions={}, metadata={op_name="jit(train_step)/train_step/optimizer/mul" stack_frame_id=228}
  %mul.1711.clone.1 = f32[64]{0:T(128)} multiply(%param_3.487, %mul.1713.clone.1), metadata={op_name="jit(train_step)/train_step/optimizer/mul" stack_frame_id=228}
  %add.802.clone.1 = f32[64]{0:T(128)} add(%mul.1712.clone.1, %mul.1711.clone.1), metadata={op_name="jit(train_step)/train_step/optimizer/add" stack_frame_id=217}
  %param_1.1020 = f32[]{:T(128)S(6)} parameter(1)
  %div.353 = f32[64]{0:T(128)} broadcast(%param_1.1020), dimensions={}, metadata={op_name="jit(train_step)/train_step/optimizer/div" stack_frame_id=218}
  %div.351 = f32[64]{0:T(128)} divide(%add.802.clone.1, %div.353), metadata={op_name="jit(train_step)/train_step/optimizer/div" stack_frame_id=218}
  %sqrt.51 = f32[64]{0:T(128)} sqrt(%div.351), metadata={op_name="jit(train_step)/train_step/optimizer/sqrt" stack_frame_id=220}
  %constant.1341 = f32[]{:T(128)} constant(1e-08)
  %add.783 = f32[64]{0:T(128)} broadcast(%constant.1341), dimensions={}, metadata={op_name="jit(train_step)/train_step/optimizer/add" stack_frame_id=220}
  %add.779 = f32[64]{0:T(128)} add(%sqrt.51, %add.783), metadata={op_name="jit(train_step)/train_step/optimizer/add" stack_frame_id=220}
  %multiply.183 = f32[64]{0:T(128)} multiply(%div.354, %add.779), metadata={op_name="multiply.33"}
  %div.350 = f32[64]{0:T(128)} divide(%add.803.clone.1, %multiply.183), metadata={op_name="jit(train_step)/train_step/optimizer/div" stack_frame_id=221}
  %constant.1412 = f32[]{:T(128)} constant(0)
  %mul.1676 = f32[64]{0:T(128)} broadcast(%constant.1412), dimensions={}, metadata={op_name="jit(train_step)/train_step/optimizer/mul" stack_frame_id=223}
  %mul.1667 = f32[64]{0:T(128)} multiply(%param_0.817, %mul.1676), metadata={op_name="jit(train_step)/train_step/optimizer/mul" stack_frame_id=223}
  %add.778 = f32[64]{0:T(128)} add(%div.350, %mul.1667), metadata={op_name="jit(train_step)/train_step/optimizer/add" stack_frame_id=224}
  %constant.1354 = f32[]{:T(128)} constant(-1e-05)
  %mul.1675 = f32[64]{0:T(128)} broadcast(%constant.1354), dimensions={}, metadata={op_name="jit(train_step)/train_step/optimizer/mul" stack_frame_id=226}
  %mul.1666 = f32[64]{0:T(128)} multiply(%add.778, %mul.1675), metadata={op_name="jit(train_step)/train_step/optimizer/mul" stack_frame_id=226}
  %add.777 = f32[64]{0:T(128)} add(%param_0.817, %mul.1666), metadata={op_name="jit(train_step)/train_step/optimizer/add" stack_frame_id=187}
  ROOT %tuple.220 = (f32[64]{0:T(128)}, f32[64]{0:T(128)}, f32[64]{0:T(128)S(1)}) tuple(%add.777, %add.802.clone.1, %add.803.clone.1)
}

%fused_computation.84.clone.clone (param_0.1037: bf16[32768,4096], param_1.1166: s32[]) -> bf16[1024,4096] {
  %param_0.1037 = bf16[32768,4096]{1,0:T(8,128)(2,1)} parameter(0)
  %param_1.1166 = s32[]{:T(128)S(6)} parameter(1)
  %constant.1660 = s32[]{:T(128)} constant(0), metadata={op_name="jit(train_step)/train_step/forward_backward/jvp()/shard_map"}
  ROOT %dynamic_slice.198 = bf16[1024,4096]{1,0:T(8,128)(2,1)S(1)} dynamic-slice(%param_0.1037, %param_1.1166, %constant.1660), dynamic_slice_sizes={1024,4096}, metadata={op_name="jit(train_step)/train_step/forward_backward/jvp()/shard_map/tokamax:{\"op\":{\"__type\":\"tokamax._src.ops.linear_softmax_cross_entropy_loss.chunked_xla.ChunkedXlaLinearSoftmaxCrossEntropyLoss\",\"config\":{\"b_block_size\":1024,\"v_block_size\":2048},\"vjp\":null},\"arguments\":{\"labels\":\"i32[32768]\",\"reduction\":\"sum\",\"return_residuals\":true,\"w\":\"f32[4096,128256]\",\"x\":\"f32[32768,4096]\"}}/jit(linear_softmax_cross_entropy_loss_fwd_chunked_xla)/while/body/closed_call/while/body/closed_call/dynamic_slice" stack_frame_id=163}, backend_config={"flag_configs":[],"scoped_memory_configs":[],"indices_config":{"index_known_bits":[{"zeroes":"0","ones":"0","bitwidth":"32"},{"zeroes":"4294967295","ones":"0","bitwidth":"32"}],"is_index_aligned":[true,true]},"used_scoped_memory_configs":[]}
}

%region_7.8 (reduce_max.10: f32[], reduce_max.11: f32[]) -> f32[] {
  %reduce_max.10 = f32[]{:T(128)} parameter(0), metadata={op_name="tokamax:{\"op\":{\"__type\":\"tokamax._src.ops.linear_softmax_cross_entropy_loss.chunked_xla.ChunkedXlaLinearSoftmaxCrossEntropyLoss\",\"config\":{\"b_block_size\":1024,\"v_block_size\":2048},\"vjp\":null},\"arguments\":{\"labels\":\"i32[32768]\",\"reduction\":\"sum\",\"return_residuals\":true,\"w\":\"f32[4096,128256]\",\"x\":\"f32[32768,4096]\"}}/jit(linear_softmax_cross_entropy_loss_fwd_chunked_xla)/while/body/closed_call/while/body/closed_call/reduce_max"}
  %reduce_max.11 = f32[]{:T(128)} parameter(1), metadata={op_name="tokamax:{\"op\":{\"__type\":\"tokamax._src.ops.linear_softmax_cross_entropy_loss.chunked_xla.ChunkedXlaLinearSoftmaxCrossEntropyLoss\",\"config\":{\"b_block_size\":1024,\"v_block_size\":2048},\"vjp\":null},\"arguments\":{\"labels\":\"i32[32768]\",\"reduction\":\"sum\",\"return_residuals\":true,\"w\":\"f32[4096,128256]\",\"x\":\"f32[32768,4096]\"}}/jit(linear_softmax_cross_entropy_loss_fwd_chunked_xla)/while/body/closed_call/while/body/closed_call/reduce_max"}
  ROOT %reduce_max.12 = f32[]{:T(128)} maximum(%reduce_max.10, %reduce_max.11), metadata={op_name="reduce_max" stack_frame_id=169}, backend_config={"flag_configs":[],"scoped_memory_configs":[],"used_scoped_memory_configs":[],"aliasing_operands":{"lists":[]}}
}

%fused_computation.66.clone.clone.clone.clone (param_0.1174: bf16[4096,129024], param_1.1269: s32[]) -> bf16[4096,2048] {
  %param_0.1174 = bf16[4096,129024]{1,0:T(8,128)(2,1)} parameter(0)
  %constant.1736 = s32[]{:T(128)} constant(0), metadata={op_name="jit(train_step)/train_step/forward_backward/jvp()/shard_map"}
  %param_1.1269 = s32[]{:T(128)S(6)} parameter(1)
  ROOT %dynamic_slice.206 = bf16[4096,2048]{1,0:T(8,128)(2,1)} dynamic-slice(%param_0.1174, %constant.1736, %param_1.1269), dynamic_slice_sizes={4096,2048}, metadata={op_name="jit(train_step)/train_step/forward_backward/jvp()/shard_map/tokamax:{\"op\":{\"__type\":\"tokamax._src.ops.linear_softmax_cross_entropy_loss.chunked_xla.ChunkedXlaLinearSoftmaxCrossEntropyLoss\",\"config\":{\"b_block_size\":1024,\"v_block_size\":2048},\"vjp\":null},\"arguments\":{\"labels\":\"i32[32768]\",\"reduction\":\"sum\",\"return_residuals\":true,\"w\":\"f32[4096,128256]\",\"x\":\"f32[32768,4096]\"}}/jit(linear_softmax_cross_entropy_loss_fwd_chunked_xla)/while/body/closed_call/while/body/closed_call/dynamic_slice" stack_frame_id=167}, backend_config={"flag_configs":[],"scoped_memory_configs":[],"indices_config":{"index_known_bits":[{"zeroes":"4294967295","ones":"0","bitwidth":"32"},{"zeroes":"0","ones":"0","bitwidth":"32"}],"is_index_aligned":[true,true]},"used_scoped_memory_configs":[]}
}

%bitcast_fusion.14.clone.clone (bitcast_input.53: bf16[1024,4096]) -> bf16[1024,4096] {
  %bitcast_input.53 = bf16[1024,4096]{1,0:T(8,128)(2,1)S(1)} parameter(0)
  ROOT %bitcast.417 = bf16[1024,4096]{1,0:T(8,128)(2,1)} bitcast(%bitcast_input.53)
}

%fused_computation.310.clone.clone (param_0.1175: bf16[1024,4096], param_1.1270: bf16[4096,129024], param_2.972: s32[]) -> (f32[1024], f32[2048,1024]) {
  %param_1.1270 = bf16[4096,129024]{1,0:T(8,128)(2,1)} parameter(1)
  %param_2.972 = s32[]{:T(128)S(6)} parameter(2)
  %fusion.63.clone.3 = bf16[4096,2048]{1,0:T(8,128)(2,1)} fusion(%param_1.1270, %param_2.972), kind=kLoop, calls=%fused_computation.66.clone.clone.clone.clone, metadata={op_name="jit(train_step)/train_step/forward_backward/jvp()/shard_map/tokamax:{\"op\":{\"__type\":\"tokamax._src.ops.linear_softmax_cross_entropy_loss.chunked_xla.ChunkedXlaLinearSoftmaxCrossEntropyLoss\",\"config\":{\"b_block_size\":1024,\"v_block_size\":2048},\"vjp\":null},\"arguments\":{\"labels\":\"i32[32768]\",\"reduction\":\"sum\",\"return_residuals\":true,\"w\":\"f32[4096,128256]\",\"x\":\"f32[32768,4096]\"}}/jit(linear_softmax_cross_entropy_loss_fwd_chunked_xla)/while/body/closed_call/while/body/closed_call/dynamic_slice" stack_frame_id=167}
  %param_0.1175 = bf16[1024,4096]{1,0:T(8,128)(2,1)S(1)} parameter(0)
  %fusion.387 = bf16[1024,4096]{1,0:T(8,128)(2,1)} fusion(%param_0.1175), kind=kLoop, calls=%bitcast_fusion.14.clone.clone
  %convolution.49.clone.3 = f32[2048,1024]{1,0:T(8,128)S(1)} convolution(%fusion.63.clone.3, %fusion.387), dim_labels=fb_oi->bf, metadata={op_name="jit(train_step)/train_step/forward_backward/jvp()/shard_map/tokamax:{\"op\":{\"__type\":\"tokamax._src.ops.linear_softmax_cross_entropy_loss.chunked_xla.ChunkedXlaLinearSoftmaxCrossEntropyLoss\",\"config\":{\"b_block_size\":1024,\"v_block_size\":2048},\"vjp\":null},\"arguments\":{\"labels\":\"i32[32768]\",\"reduction\":\"sum\",\"return_residuals\":true,\"w\":\"f32[4096,128256]\",\"x\":\"f32[32768,4096]\"}}/jit(linear_softmax_cross_entropy_loss_fwd_chunked_xla)/while/body/closed_call/while/body/closed_call/dot_general" stack_frame_id=168}
  %constant.1737 = f32[]{:T(128)} constant(-inf), metadata={op_name="jit(train_step)/train_step/forward_backward/jvp()/shard_map"}
  %reduce_max.18 = f32[1024]{0:T(1024)S(1)} reduce(%convolution.49.clone.3, %constant.1737), dimensions={0}, to_apply=%region_7.8, metadata={op_name="jit(train_step)/train_step/forward_backward/jvp()/shard_map/tokamax:{\"op\":{\"__type\":\"tokamax._src.ops.linear_softmax_cross_entropy_loss.chunked_xla.ChunkedXlaLinearSoftmaxCrossEntropyLoss\",\"config\":{\"b_block_size\":1024,\"v_block_size\":2048},\"vjp\":null},\"arguments\":{\"labels\":\"i32[32768]\",\"reduction\":\"sum\",\"return_residuals\":true,\"w\":\"f32[4096,128256]\",\"x\":\"f32[32768,4096]\"}}/jit(linear_softmax_cross_entropy_loss_fwd_chunked_xla)/while/body/closed_call/while/body/closed_call/reduce_max" stack_frame_id=169}
  ROOT %tuple.349 = (f32[1024]{0:T(1024)S(1)}, f32[2048,1024]{1,0:T(8,128)S(1)}) tuple(%reduce_max.18, %convolution.49.clone.3)
}

%fused_computation.77.clone.clone (param_0.1177: s32[1024], param_1.1271: s32[]) -> s32[1024] {
  %param_0.1177 = s32[1024]{0:T(1024)S(1)} parameter(0)
  %param_1.1271 = s32[]{:T(128)S(6)} parameter(1)
  %sub.211 = s32[1024]{0:T(1024)} broadcast(%param_1.1271), dimensions={}, metadata={op_name="jit(train_step)/train_step/forward_backward/jvp()/shard_map/tokamax:{\"op\":{\"__type\":\"tokamax._src.ops.linear_softmax_cross_entropy_loss.chunked_xla.ChunkedXlaLinearSoftmaxCrossEntropyLoss\",\"config\":{\"b_block_size\":1024,\"v_block_size\":2048},\"vjp\":null},\"arguments\":{\"labels\":\"i32[32768]\",\"reduction\":\"sum\",\"return_residuals\":true,\"w\":\"f32[4096,128256]\",\"x\":\"f32[32768,4096]\"}}/jit(linear_softmax_cross_entropy_loss_fwd_chunked_xla)/while/body/closed_call/while/body/closed_call/sub" stack_frame_id=171}
  ROOT %sub.210 = s32[1024]{0:T(1024)S(1)} subtract(%param_0.1177, %sub.211), metadata={op_name="jit(train_step)/train_step/forward_backward/jvp()/shard_map/tokamax:{\"op\":{\"__type\":\"tokamax._src.ops.linear_softmax_cross_entropy_loss.chunked_xla.ChunkedXlaLinearSoftmaxCrossEntropyLoss\",\"config\":{\"b_block_size\":1024,\"v_block_size\":2048},\"vjp\":null},\"arguments\":{\"labels\":\"i32[32768]\",\"reduction\":\"sum\",\"return_residuals\":true,\"w\":\"f32[4096,128256]\",\"x\":\"f32[32768,4096]\"}}/jit(linear_softmax_cross_ent…
ed_memory_configs":[],"output_chunk_bound_config":{"output_chunk_bound":[]},"aliasing_operands":{"lists":[]}}
  %bitcast.4 = bf16[32768,4096]{1,0:T(8,128)(2,1)} bitcast(%fusion.172), metadata={op_name="jit(train_step)/train_step/forward_backward/jvp()/convert_element_type" stack_frame_id=126}
  %bitcast.92 = s32[32768]{0:T(1024)} bitcast(%copy.249), metadata={op_name="jit(train_step)/train_step/forward_backward/jvp()/reshape" stack_frame_id=127}
  %tuple.362 = (s32[]{:T(128)}, f32[32768]{0:T(1024)}, f32[]{:T(128)}, bf16[32768,4096]{1,0:T(8,128)(2,1)}, s32[32768]{0:T(1024)}, /*index=5*/bf16[4096,129024]{1,0:T(8,128)(2,1)}, s32[]{:T(128)}, s32[]{:T(128)}, s32[]{:T(128)}, s32[]{:T(128)}, /*index=10*/s32[]{:T(128)}, s32[]{:T(128)}, s32[]{:T(128)}, s32[]{:T(128)}) tuple(%copy.306, %broadcast_in_dim.246, %copy.308, %bitcast.4, %bitcast.92, /*index=5*/%pad.57, %constant.930, %constant.912, %constant.1511, %constant.1512, /*index=10*/%constant.930, %constant.1514, %constant.912, %constant.1516)
  %while.161 = (s32[]{:T(128)}, f32[32768]{0:T(1024)}, f32[]{:T(128)}, bf16[32768,4096]{1,0:T(8,128)(2,1)}, s32[32768]{0:T(1024)}, /*index=5*/bf16[4096,129024]{1,0:T(8,128)(2,1)}, s32[]{:T(128)}, s32[]{:T(128)}, s32[]{:T(128)}, s32[]{:T(128)}, /*index=10*/s32[]{:T(128)}, s32[]{:T(128)}, s32[]{:T(128)}, s32[]{:T(128)}) while(%tuple.362), condition=%wide.region_13.16_spmd, body=%wide.region_5.15_spmd.sunk, metadata={op_name="jit(train_step)/train_step/forward_backward/jvp()/shard_map/tokamax:{\"op\":{\"__type\":\"tokamax._src.ops.linear_softmax_cross_entropy_loss.chunked_xla.ChunkedXlaLinearSoftmaxCrossEntropyLoss\",\"config\":{\"b_block_size\":1024,\"v_block_size\":2048},\"vjp\":null},\"arguments\":{\"labels\":\"i32[32768]\",\"reduction\":\"sum\",\"return_residuals\":true,\"w\":\"f32[4096,128256]\",\"x\":\"f32[32768,4096]\"}}/jit(linear_softmax_cross_entropy_loss_fwd_chunked_xla)/while" stack_frame_id=141}
  %get-tuple-element.2637 = f32[32768]{0:T(1024)} get-tuple-element(%while.161), index=1, metadata={op_name="jit(train_step)/train_step/forward_backward/jvp()/shard_map/tokamax:{\"op\":{\"__type\":\"tokamax._src.ops.linear_softmax_cross_entropy_loss.chunked_xla.ChunkedXlaLinearSoftmaxCrossEntropyLoss\",\"config\":{\"b_block_size\":1024,\"v_block_size\":2048},\"vjp\":null},\"arguments\":{\"labels\":\"i32[32768]\",\"reduction\":\"sum\",\"return_residuals\":true,\"w\":\"f32[4096,128256]\",\"x\":\"f32[32768,4096]\"}}/jit(linear_softmax_cross_entropy_loss_fwd_chunked_xla)/while" stack_frame_id=141}
  %broadcast_in_dim.249 = f32[4096,129024]{0,1:T(8,128)} broadcast(%constant.919), dimensions={}, metadata={op_name="jit(train_step)/train_step/forward_backward/transpose(train_step)/forward_backward/jvp()/shard_map/tokamax:{\"op\":{\"__type\":\"tokamax._src.ops.linear_softmax_cross_entropy_loss.chunked_xla.ChunkedXlaLinearSoftmaxCrossEntropyLossVjp\",\"config\":{\"b_block_size\":1024,\"v_block_size\":2048},\"vjp\":null},\"arguments\":{\"dout\":\"f32[]\",\"labels\":\"i32[32768]\",\"out\":\"f32[]\",\"reduction\":\"sum\",\"residuals\":[\"f32[32768]\"],\"return_residuals\":false,\"w\":\"f32[4096,128256]\",\"x\":\"f32[32768,4096]\"}}/jit(linear_softmax_cross_entropy_loss_bwd_chunked_xla)/broadcast_in_dim" stack_frame_id=192}, backend_config={"flag_configs":[],"scoped_memory_configs":[],"used_scoped_memory_configs":[],"output_chunk_bound_config":{"output_chunk_bound":[]},"aliasing_operands":{"lists":[]}}
  %broadcast_in_dim.248 = f32[32768,4096]{1,0:T(8,128)} broadcast(%constant.919), dimensions={}, metadata={op_name="jit(train_step)/train_step/forward_backward/transpose(train_step)/forward_backward/jvp()/shard_map/tokamax:{\"op\":{\"__type\":\"tokamax._src.ops.linear_softmax_cross_entropy_loss.chunked_xla.ChunkedXlaLinearSoftmaxCrossEntropyLossVjp\",\"config\":{\"b_block_size\":1024,\"v_block_size\":2048},\"vjp\":null},\"arguments\":{\"dout\":\"f32[]\",\"labels\":\"i32[32768]\",\"out\":\"f32[]\",\"reduction\":\"sum\",\"residuals\":[\"f32[32768]\"],\"return_residuals\":false,\"w\":\"f32[4096,128256]\",\"x\":\"f32[32768,4096]\"}}/jit(linear_softmax_cross_entropy_loss_bwd_chunked_xla)/broadcast_in_dim" stack_frame_id=192}, backend_config={"flag_configs":[],"scoped_memory_configs":[],"used_scoped_memory_configs":[],"output_chunk_bound_config":{"output_chunk_bound":[]},"aliasing_operands":{"lists":[]}}
  %tuple.365 = (s32[]{:T(128)}, f32[32768,4096]{1,0:T(8,128)}, f32[4096,129024]{0,1:T(8,128)}, bf16[32768,4096]{1,0:T(8,128)(2,1)}, s32[32768]{0:T(1024)}, /*index=5*/f32[32768]{0:T(1024)}, bf16[4096,129024]{1,0:T(8,128)(2,1)}, s32[]{:T(128)}, s32[]{:T(128)}, s32[]{:T(128)}, /*index=10*/s32[]{:T(128)}, s32[]{:T(128)}, s32[]{:T(128)}, s32[]{:T(128)}, s32[]{:T(128)}) tuple(%copy.315, %broadcast_in_dim.248, %broadcast_in_dim.249, %bitcast.4, %bitcast.92, /*index=5*/%get-tuple-element.2637, %pad.57, %constant.930, %constant.912, %constant.1511, /*index=10*/%constant.1512, %constant.930, %constant.912, %constant.1514, %constant.1516)
  %while.163 = (s32[]{:T(128)}, f32[32768,4096]{1,0:T(8,128)}, f32[4096,129024]{0,1:T(8,128)}, bf16[32768,4096]{1,0:T(8,128)(2,1)}, s32[32768]{0:T(1024)}, /*index=5*/f32[32768]{0:T(1024)}, bf16[4096,129024]{1,0:T(8,128)(2,1)}, s32[]{:T(128)}, s32[]{:T(128)}, s32[]{:T(128)}, /*index=10*/s32[]{:T(128)}, s32[]{:T(128)}, s32[]{:T(128)}, s32[]{:T(128)}, s32[]{:T(128)}) while(%tuple.365), condition=%wide.region_18.22_spmd, body=%wide.region_15.21_spmd.sunk, metadata={op_name="jit(train_step)/train_step/forward_backward/transpose(train_step)/forward_backward/jvp()/shard_map/tokamax:{\"op\":{\"__type\":\"tokamax._src.ops.linear_softmax_cross_entropy_loss.chunked_xla.ChunkedXlaLinearSoftmaxCrossEntropyLossVjp\",\"config\":{\"b_block_size\":1024,\"v_block_size\":2048},\"vjp\":null},\"arguments\":{\"dout\":\"f32[]\",\"labels\":\"i32[32768]\",\"out\":\"f32[]\",\"reduction\":\"sum\",\"residuals\":[\"f32[32768]\"],\"return_residuals\":false,\"w\":\"f32[4096,128256]\",\"x\":\"f32[32768,4096]\"}}/jit(linear_softmax_cross_entropy_loss_bwd_chunked_xla)/while" stack_frame_id=192}
  %get-tuple-element.1257 = f32[32768,4096]{1,0:T(8,128)} get-tuple-element(%while.163), index=1, metadata={op_name="jit(train_step)/train_step/forward_backward/transpose(train_step)/forward_backward/jvp()/shard_map/tokamax:{\"op\":{\"__type\":\"tokamax._src.ops.linear_softmax_cross_entropy_loss.chunked_xla.ChunkedXlaLinearSoftmaxCrossEntropyLossVjp\",\"config\":{\"b_block_size\":1024,\"v_block_size\":2048},\"vjp\":null},\"arguments\":{\"dout\":\"f32[]\",\"labels\":\"i32[32768]\",\"out\":\"f32[]\",\"reduction\":\"sum\",\"residuals\":[\"f32[32768]\"],\"return_residuals\":false,\"w\":\"f32[4096,128256]\",\"x\":\"f32[32768,4096]\"}}/jit(linear_softmax_cross_entropy_loss_bwd_chunked_xla)/while" stack_frame_id=192}
  %copy-start.54 = (f32[4,8192]{1,0:T(4,128)S(1)}, f32[4,8192]{1,0:T(4,128)}, u32[]{:S(2)}) copy-start(%copy-done.53)
  %copy-start.65 = (f32[8,1,512]{2,1,0:T(1,128)S(1)}, f32[8,1,512]{2,1,0:T(1,128)}, u32[]{:S(2)}) copy-start(%all-gather.135.cloned.1.call-done)
  %fusion.171 = f32[32768,4096]{1,0:T(8,128)} fusion(%get-tuple-element.1257, %psum.25), kind=kLoop, calls=%fused_computation.254, metadata={op_name="jit(train_step)/train_step/forward_backward/transpose(jvp())/convert_element_type" stack_frame_id=124}, backend_config={"flag_configs":[],"scoped_memory_configs":[],"used_scoped_memory_configs":[],"aliasing_operands":{"lists":[]}}
  %copy-start.58 = (f32[4,8192]{1,0:T(4,128)S(1)}, f32[4,8192]{1,0:T(4,128)}, u32[]{:S(2)}) copy-start(%copy-done.57)
  %copy-done.54 = f32[4,8192]{1,0:T(4,128)S(1)} copy-done(%copy-start.54)
  %copy-done.65 = f32[8,1,512]{2,1,0:T(1,128)S(1)} copy-done(%copy-start.65)
  %bitcast.8 = f32[4,8192,4096]{2,1,0:T(8,128)} bitcast(%fusion.171), metadata={op_name="jit(train_step)/train_step/forward_backward/transpose(jvp())/convert_element_type" stack_frame_id=124}
  %bitcast.450 = f32[4096]{0:T(1024)S(1)} bitcast(%copy-done.65)
  %fusion.164 = (f32[4096]{0:T(1024)}, f32[4,8192]{1,0:T(4,128)S(1)}) fusion(%bitcast.8, %copy.207, %copy-done.54, %bitcast.450), kind=kLoop, calls=%fused_computation.244, metadata={op_name="jit(train_step)/train_step/forward_backward/transpose(jvp())/reduce_sum" stack_frame_id=122}, backend_config={"flag_configs":[],"scoped_memory_configs":[],"used_scoped_memory_configs":[],"aliasing_operands":{"lists":[]}}
  %get-tuple-element.1645 = f32[4,8192]{1,0:T(4,128)S(1)} get-tuple-element(%fusion.164), index=1, metadata={op_name="jit(train_step)/train_step/forward_backward/transpose(jvp())/reduce_sum" stack_frame_id=122}
  %copy-done.58 = f32[4,8192]{1,0:T(4,128)S(1)} copy-done(%copy-start.58)
  %multiply_multiply_fusion.2 = f32[4,8192]{1,0:T(4,128)S(1)} fusion(%get-tuple-element.1645, %copy-done.58), kind=kLoop, calls=%fused_computation.291, metadata={op_name="jit(train_step)/train_step/forward_backward/transpose(jvp())/div" stack_frame_id=120}, backend_config={"flag_configs":[],"scoped_memory_configs":[],"used_scoped_memory_configs":[],"aliasing_operands":{"lists":[]}}
  %bitcast.451 = f32[4096]{0:T(1024)S(1)} bitcast(%copy-done.65)
  %fusion.165 = bf16[4,8192,4096]{2,1,0:T(8,128)(2,1)} fusion(%copy.207, %bitcast.8, %multiply_multiply_fusion.2, %bitcast.451, %copy-done.54), kind=kLoop, calls=%fused_computation.245, metadata={op_name="jit(train_step)/train_step/forward_backward/transpose(jvp())/convert_element_type" stack_frame_id=118}, backend_config={"flag_configs":[],"scoped_memory_configs":[],"used_scoped_memory_configs":[],"aliasing_operands":{"lists":[{"indices":["0","5"]}]}}
  %copy.209 = bf16[4,8192,4096]{1,2,0:T(8,128)(2,1)} copy(%fusion.165), backend_config={"flag_configs":[],"scoped_memory_configs":[],"used_scoped_memory_configs":[],"aliasing_operands":{"lists":[]}}
  %get-tuple-element.2690 = bf16[32,4,8192,4096]{2,3,1,0:T(8,128)(2,1)} get-tuple-element(%while.164), index=2, metadata={op_name="jit(train_step)/train_step/forward_backward/jvp()/while" stack_frame_id=10}
  %get-tuple-element.2700 = bf16[4,8192,128]{2,1,0:T(8,128)(2,1)} get-tuple-element(%fusion.181), index=1, metadata={op_name="jit(train_step)/train_step/forward_backward/jvp()/convert_element_type" stack_frame_id=52}
  %get-tuple-element.2701 = bf16[4,8192,128]{2,1,0:T(8,128)(2,1)} get-tuple-element(%fusion.181), index=0, metadata={op_name="jit(train_step)/train_step/forward_backward/jvp()/convert_element_type" stack_frame_id=52}
  %broadcast.363 = bf16[32,512,14336]{2,1,0:T(8,128)(2,1)} broadcast(%constant.916), dimensions={}, metadata={op_name="broadcast.76"}, backend_config={"flag_configs":[],"scoped_memory_configs":[],"used_scoped_memory_configs":[],"output_chunk_bound_config":{"output_chunk_bound":[]},"aliasing_operands":{"lists":[]}}
  %broadcast.364 = bf16[32,14336,512]{2,1,0:T(8,128)(2,1)} broadcast(%constant.916), dimensions={}, metadata={op_name="broadcast.75"}, backend_config={"flag_configs":[],"scoped_memory_configs":[],"used_scoped_memory_configs":[],"output_chunk_bound_config":{"output_chunk_bound":[]},"aliasing_operands":{"lists":[]}}
  %broadcast.364.clone = bf16[32,14336,512]{2,1,0:T(8,128)(2,1)} broadcast(%constant.916), dimensions={}, metadata={op_name="broadcast.75"}, backend_config={"flag_configs":[],"scoped_memory_configs":[],"used_scoped_memory_configs":[],"output_chunk_bound_config":{"output_chunk_bound":[]},"aliasing_operands":{"lists":[]}}
  %broadcast.366 = bf16[32,512,4096]{2,1,0:T(8,128)(2,1)} broadcast(%constant.916), dimensions={}, metadata={op_name="broadcast.73"}, backend_config={"flag_configs":[],"scoped_memory_configs":[],"used_scoped_memory_configs":[],"output_chunk_bound_config":{"output_chunk_bound":[]},"aliasing_operands":{"lists":[]}}
  %broadcast.367 = bf16[32,4096,512]{2,1,0:T(8,128)(2,1)} broadcast(%constant.916), dimensions={}, metadata={op_name="broadcast.73"}, backend_config={"flag_configs":[],"scoped_memory_configs":[],"used_scoped_memory_configs":[],"output_chunk_bound_config":{"output_chunk_bound":[]},"aliasing_operands":{"lists":[]}}
  %broadcast.365 = bf16[32,1024,512]{2,1,0:T(8,128)(2,1)} broadcast(%constant.916), dimensions={}, metadata={op_name="broadcast.74"}, backend_config={"flag_configs":[],"scoped_memory_configs":[],"used_scoped_memory_configs":[],"output_chunk_bound_config":{"output_chunk_bound":[]},"aliasing_operands":{"lists":[]}}
  %broadcast.365.clone = bf16[32,1024,512]{2,1,0:T(8,128)(2,1)} broadcast(%constant.916), dimensions={}, metadata={op_name="broadcast.74"}, backend_config={"flag_configs":[],"scoped_memory_configs":[],"used_scoped_memory_configs":[],"output_chunk_bound_config":{"output_chunk_bound":[]},"aliasing_operands":{"lists":[]}}
  %broadcast.362 = bf16[32,512]{1,0:T(8,128)(2,1)} broadcast(%constant.916), dimensions={}, metadata={op_name="broadcast.77"}, backend_config={"flag_configs":[],"scoped_memory_configs":[],"used_scoped_memory_configs":[],"output_chunk_bound_config":{"output_chunk_bound":[]},"aliasing_operands":{"lists":[]}}
  %broadcast.362.clone = bf16[32,512]{1,0:T(8,128)(2,1)} broadcast(%constant.916), dimensions={}, metadata={op_name="broadcast.77"}, backend_config={"flag_configs":[],"scoped_memory_configs":[],"used_scoped_memory_configs":[],"output_chunk_bound_config":{"output_chunk_bound":[]},"aliasing_operands":{"lists":[]}}
  %get-tuple-element.2878 = bf16[32,1024,512]{2,1,0:T(8,128)(2,1)} get-tuple-element(%while.164), index=7
  %get-tuple-element.2880 = bf16[32,1024,512]{2,1,0:T(8,128)(2,1)} get-tuple-element(%while.164), index=8
  %get-tuple-element.2931 = s8[20]{0:T(512)(128)(4,1)} get-tuple-element(%while.164), index=17
  %get-tuple-element.2932 = s8[20]{0:T(512)(128)(4,1)} get-tuple-element(%while.164), index=20
  %tuple.375 = (s32[]{:T(128)}, bf16[4,8192,128]{2,1,0:T(8,128)(2,1)}, bf16[4,8192,128]{2,1,0:T(8,128)(2,1)}, bf16[4,8192,4096]{1,2,0:T(8,128)(2,1)}, bf16[32,512]{1,0:T(8,128)(2,1)}, /*index=5*/bf16[32,512,14336]{2,1,0:T(8,128)(2,1)}, bf16[32,14336,512]{2,1,0:T(8,128)(2,1)}, bf16[32,14336,512]{2,1,0:T(8,128)(2,1)}, bf16[32,512]{1,0:T(8,128)(2,1)}, bf16[32,1024,512]{2,1,0:T(8,128)(2,1)}, /*index=10*/bf16[32,512,4096]{2,1,0:T(8,128)(2,1)}, bf16[32,4096,512]{2,1,0:T(8,128)(2,1)}, bf16[32,1024,512]{2,1,0:T(8,128)(2,1)}, bf16[32,4,8192,4096]{2,3,1,0:T(8,128)(2,1)}, bf16[32,512]{1,0:T(8,128)(2,1)}, /*index=15*/bf16[32,512,14336]{2,1,0:T(8,128)(2,1)}, bf16[32,14336,512]{2,1,0:T(8,128)(2,1)}, bf16[32,14336,512]{2,1,0:T(8,128)(2,1)}, bf16[32,512]{1,0:T(8,128)(2,1)}, bf16[32,1024,512]{2,1,0:T(8,128)(2,1)}, /*index=20*/bf16[32,512,4096]{2,1,0:T(8,128)(2,1)}, bf16[32,4096,512]{2,1,0:T(8,128)(2,1)}, bf16[32,1024,512]{2,1,0:T(8,128)(2,1)}, bf16[4,8192,128]{2,1,0:T(8,128)(2,1)}, bf16[4,8192,128]{2,1,0:T(8,128)(2,1)}, /*index=25*/s32[]{:T(128)}, s8[20]{0:T(512)(128)(4,1)}, s8[20]{0:T(512)(128)(4,1)}, s8[20]{0:T(512)(128)(4,1)}, s32[1]{0:T(128)}, /*index=30*/s8[16]{0:T(512)(128)(4,1)}, s32[]{:T(128)}, s32[1]{0:T(128)}, s32[]{:T(128)}, bf16[]{:T(256)}, /*index=35*/s32[]{:T(128)}) tuple(%copy.324, %custom-call.3, %custom-call.4, %copy.209, %broadcast.362, /*index=5*/%broadcast.363, %broadcast.364, %broadcast.364.clone, %broadcast.362.clone, %broadcast.365, /*index=10*/%broadcast.366, %broadcast.367, %broadcast.365.clone, %get-tuple-element.2690, %param.61, /*index=15*/%param.70, %param.68, %param.69, %param.67, %get-tuple-element.2878, /*index=20*/%param.66, %param.62, %get-tuple-element.2880, %get-tuple-element.2700, %get-tuple-element.2701, /*index=25*/%constant.930, %constant.1552, %get-tuple-element.2931, %get-tuple-element.2932, %constant.1591, /*index=30*/%constant.1592, %constant.1593, %constant.1594, %constant.912, %constant.916, /*index=35*/%constant.979)
  %while.165 = (s32[]{:T(128)}, bf16[4,8192,128]{2,1,0:T(8,128)(2,1)}, bf16[4,8192,128]{2,1,0:T(8,128)(2,1)}, bf16[4,8192,4096]{1,2,0:T(8,128)(2,1)}, bf16[32,512]{1,0:T(8,128)(2,1)}, /*index=5*/bf16[32,512,14336]{2,1,0:T(8,128)(2,1)}, bf16[32,14336,512]{2,1,0:T(8,128)(2,1)}, bf16[32,14336,512]{2,1,0:T(8,128)(2,1)}, bf16[32,512]{1,0:T(8,128)(2,1)}, bf16[32,1024,512]{2,1,0:T(8,128)(2,1)}, /*index=10*/bf16[32,512,4096]{2,1,0:T(8,128)(2,1)}, bf16[32,4096,512]{2,1,0:T(8,128)(2,1)}, bf16[32,1024,512]{2,1,0:T(8,128)(2,1)}, bf16[32,4,8192,4096]{2,3,1,0:T(8,128)(2,1)}, bf16[32,512]{1,0:T(8,128)(2,1)}, /*index=15*/bf16[32,512,14336]{2,1,0:T(8,128)(2,1)}, bf16[32,14336,512]{2,1,0:T(8,128)(2,1)}, bf16[32,14336,512]{2,1,0:T(8,128)(2,1)}, bf16[32,512]{1,0:T(8,128)(2,1)}, bf16[32,1024,512]{2,1,0:T(8,128)(2,1)}, /*index=20*/bf16[32,512,4096]{2,1,0:T(8,128)(2,1)}, bf16[32,4096,512]{2,1,0:T(8,128)(2,1)}, bf16[32,1024,512]{2,1,0:T(8,128)(2,1)}, bf16[4,8192,128]{2,1,0:T(8,128)(2,1)}, bf16[4,8192,128]{2,1,0:T(8,128)(2,1)}, /*index=25*/s32[]{:T(128)}, s8[20]{0:T(512)(128)(4,1)}, s8[20]{0:T(512)(128)(4,1)}, s8[20]{0:T(512)(128)(4,1)}, s32[1]{0:T(128)}, /*index=30*/s8[16]{0:T(512)(128)(4,1)}, s32[]{:T(128)}, s32[1]{0:T(128)}, s32[]{:T(128)}, bf16[]{:T(256)}, /*index=35*/s32[]{:T(128)}) while(%tuple.375), condition=%wide.region_35.42_spmd.clone, body=%wide.region_22.41_spmd.clone.sunk, metadata={op_name="jit(train_step)/train_step/forward_backward/transpose(jvp())/while" stack_frame_id=10}
  %prepare_start_all-reduce.33.cloned.1.call-start = s32[]{:S(2)} custom-call(), custom_call_target="PrepareAsyncCallStart", backend_config={"flag_configs":[],"scoped_memory_configs":[],"used_scoped_memory_configs":[],"aliasing_operands":{"lists":[]}}
  %prepare_start_reduce-scatter.40.cloned.1.call-start = s32[]{:S(2)} custom-call(), custom_call_target="PrepareAsyncCallStart", backend_config={"flag_configs":[],"scoped_memory_configs":[],"used_scoped_memory_configs":[],"aliasing_operands":{"lists":[]}}
  %get-tuple-element.1238 = bf16[4,8192,128]{2,1,0:T(8,128)(2,1)} get-tuple-element(%while.165), index=2, metadata={op_name="jit(train_step)/train_step/forward_backward/transpose(jvp())/while" stack_frame_id=10}
  %get-tuple-element.1239 = bf16[4,8192,128]{2,1,0:T(8,128)(2,1)} get-tuple-element(%while.165), index=1, metadata={op_name="jit(train_step)/train_step/forward_backward/transpose(jvp())/while" stack_frame_id=10}
  %multiply_add_fusion.20 = f32[4,8192,128]{2,1,0:T(8,128)S(1)} fusion(%get-tuple-element.1239, %get-tuple-element.1238, %get-tuple-element.1864), kind=kLoop, calls=%fused_computation.280, metadata={op_name="jit(train_step)/train_step/forward_backward/transpose(jvp())/add_any" stack_frame_id=49}, backend_config={"flag_configs":[],"scoped_memory_configs":[],"used_scoped_memory_configs":[],"aliasing_operands":{"lists":[]}}
  %fusion.177 = f32[64]{0:T(128)} fusion(%multiply_add_fusion.20, %copy-done.63), kind=kLoop, calls=%fused_computation.277, metadata={op_name="jit(train_step)/train_step/forward_backward/transpose(jvp())/reduce_sum" stack_frame_id=47}, backend_config={"flag_configs":[],"scoped_memory_configs":[],"used_scoped_memory_configs":[],"aliasing_operands":{"lists":[]}}
  %get-tuple-element.1644 = f32[4096]{0:T(1024)} get-tuple-element(%fusion.164), index=0, metadata={op_name="jit(train_step)/train_step/forward_backward/transpose(jvp())/reduce_sum" stack_frame_id=122}
  %get-tuple-element.1237 = bf16[4,8192,4096]{1,2,0:T(8,128)(2,1)} get-tuple-element(%while.165), index=3, metadata={op_name="jit(train_step)/train_step/forward_backward/transpose(jvp())/while" stack_frame_id=10}
  %copy.210 = bf16[4,8192,4096]{2,1,0:T(8,128)(2,1)} copy(%get-tuple-element.1237), metadata={op_name="jit(train_step)/train_step/forward_backward/transpose(jvp())/while" stack_frame_id=10}, backend_config={"flag_configs":[],"scoped_memory_configs":[],"used_scoped_memory_configs":[],"aliasing_operands":{"lists":[]}}
  %get-tuple-element.1632 = s32[32768]{0:T(1024)} get-tuple-element(%sort), index=0, metadata={op_name="jit(train_step)/train_step/forward_backward/transpose(jvp())/scatter-add" stack_frame_id=9}
  %bitcast.9 = bf16[32768,4096]{1,0:T(8,128)(2,1)} bitcast(%copy.210), metadata={op_name="jit(train_step)/train_step/forward_backward/transpose(jvp())/while" stack_frame_id=10}
  %fusion.1 = bf16[128256,4096]{1,0:T(8,128)(2,1)} fusion(%get-tuple-element.1632, %constant.916, %bitcast.9, %broadcast_clamp_fusion), kind=kCustom, calls=%fused_computation.249, metadata={op_name="jit(train_step)/train_step/forward_backward/transpose(jvp())/scatter-add" stack_frame_id=9}, backend_config={"flag_configs":[],"scoped_memory_configs":[],"used_scoped_memory_configs":[],"aliasing_operands":{"lists":[]}}
  %prepare_done_all-reduce.33.cloned.1.call-start = token[] custom-call(%prepare_start_all-reduce.33.cloned.1.call-start), custom_call_target="PrepareAsyncCallDone", backend_config={"flag_configs":[],"scoped_memory_configs":[],"used_scoped_memory_configs":[],"aliasing_operands":{"lists":[]}}
  %copy-start.71 = (f32[4096]{0:T(1024)S(1)}, f32[4096]{0:T(1024)}, u32[]{:S(2)}) copy-start(%get-tuple-element.1644)
  %copy-start.112 = (f32[64]{0:T(128)S(1)}, f32[64]{0:T(128)}, u32[]{:S(2)}) copy-start(%fusion.177)
  %copy-start.120 = (f32[64]{0:T(128)S(1)}, f32[64]{0:T(128)}, u32[]{:S(2)}) copy-start(%param.82)
  %copy-start.110 = (bf16[512]{0:T(512)(128)(2,1)S(1)}, bf16[512]{0:T(512)(128)(2,1)}, u32[]{:S(2)}) copy-start(%param.71)
  %copy-start.113 = (f32[512]{0:T(512)S(1)}, f32[512]{0:T(512)}, u32[]{:S(2)}) copy-start(%param.79)
  %copy-start.115 = (bf16[512]{0:T(512)(128)(2,1)S(1)}, bf16[512]{0:T(512)(128)(2,1)}, u32[]{:S(2)}) copy-start(%param.80)
  %get-tuple-element.1240 = bf16[32,512]{1,0:T(8,128)(2,1)} get-tuple-element(%while.165), index=4, metadata={op_name="jit(train_step)/train_step/forward_backward/transpose(jvp())/while" stack_frame_id=10}
  %copy-start.66 = (bf16[32,512]{1,0:T(8,128)(2,1)S(1)}, bf16[32,512]{1,0:T(8,128)(2,1)}, u32[]{:S(2)}) copy-start(%get-tuple-element.1240)
  %get-tuple-element.1244 = bf16[32,512]{1,0:T(8,128)(2,1)} get-tuple-element(%while.165), index=8, metadata={op_name="jit(train_step)/train_step/forward_backward/transpose(jvp())/while" stack_frame_id=10}
  %copy-start.67 = (bf16[32,512]{1,0:T(8,128)(2,1)S(1)}, bf16[32,512]{1,0:T(8,128)(2,1)}, u32[]{:S(2)}) copy-start(%get-tuple-element.1244)
  %copy-start.72 = (f32[32,512]{1,0:T(8,128)S(1)}, f32[32,512]{1,0:T(8,128)}, u32[]{:S(2)}) copy-start(%param.91)
  %copy-start.74 = (f32[32,512]{1,0:T(8,128)S(1)}, f32[32,512]{1,0:T(8,128)}, u32[]{:S(2)}) copy-start(%param.83)
  %copy-start.78 = (bf16[32,512]{1,0:T(8,128)(2,1)S(1)}, bf16[32,512]{1,0:T(8,128)(2,1)}, u32[]{:S(2)}) copy-start(%param.92)
  %copy-start.80 = (bf16[32,512]{1,0:T(8,128)(2,1)S(1)}, bf16[32,512]{1,0:T(8,128)(2,1)}, u32[]{:S(2)}) copy-start(%param.84)
  %all-reduce.33.cloned.1.call-start = ((bf16[128256,4096]{1,0:T(8,128)(2,1)}, token[]), bf16[128256,4096]{1,0:T(8,128)(2,1)}) async-start(%fusion.1, %prepare_done_all-reduce.33.cloned.1.call-start), async_execution_thread="sparsecore", calls=%async_computation.12, backend_config={"flag_configs":[],"scoped_memory_configs":[],"megachip_parallelism_config":{"cores":["0","1"]},"used_scoped_memory_configs":[],"sparse_core_config":{"offload":"OFFLOAD_COLLECTIVE","enable_megacore":true}}
  %get-tuple-element.1255 = f32[]{:T(128)} get-tuple-element(%while.161), index=2, metadata={op_name="jit(train_step)/train_step/forward_backward/jvp()/shard_map/tokamax:{\"op\":{\"__type\":\"tokamax._src.ops.linear_softmax_cross_entropy_loss.chunked_xla.ChunkedXlaLinearSoftmaxCrossEntropyLoss\",\"config\":{\"b_block_size\":1024,\"v_block_size\":2048},\"vjp\":null},\"arguments\":{\"labels\":\"i32[32768]\",\"reduction\":\"sum\",\"return_residuals\":true,\"w\":\"f32[4096,128256]\",\"x\":\"f32[32768,4096]\"}}/jit(linear_softmax_cross_entropy_loss_fwd_chunked_xla)/while" stack_frame_id=141}
  %copy-done.71 = f32[4096]{0:T(1024)S(1)} copy-done(%copy-start.71)
  %copy-done.112 = f32[64]{0:T(128)S(1)} copy-done(%copy-start.112)
  %all-reduce.34 = (f32[]{:T(128)}, bf16[4096]{0:T(1024)(128)(2,1)S(1)}, f32[64]{0:T(128)S(1)}) all-reduce(%get-tuple-element.1255, %copy-done.71, %copy-done.112), channel_id=1, replica_groups={{0,1,2,3,4,5,6,7}}, use_global_device_ids=true, to_apply=%region_14.17, frontend_attributes={async_collective_name="all-reduce-start.2"}, metadata={op_name="jit(train_step)/train_step/forward_backward/jvp()/shard_map/psum" stack_frame_id=184}, backend_config={"flag_configs":[],"barrier_config":{"barrier_type":"CUSTOM","id":"0"},"scoped_memory_configs":[{"memory_space":"0","offset":"0","size":"67108864"}],"used_scoped_memory_configs":[],"aliasing_operands":{"lists":[]}}
  %get-tuple-element.1780 = f32[64]{0:T(128)S(1)} get-tuple-element(%all-reduce.34), index=2, metadata={op_name="jit(train_step)/train_step/forward_backward/transpose(jvp())/reduce_sum" stack_frame_id=47}
  %copy-done.120 = f32[64]{0:T(128)S(1)} copy-done(%copy-start.120)
  %multiply_add_fusion.28 = (f32[64]{0:T(128)}, f32[64]{0:T(128)}, f32[64]{0:T(128)S(1)}) fusion(%param.63, %sub.138, %sub.137, %copy-done.120, %get-tuple-element.1780, /*index=5*/%param.81), kind=kLoop, calls=%fused_computation.307, metadata={op_name="jit(train_step)/train_step/optimizer/add" stack_frame_id=187}, backend_config={"flag_configs":[],"scoped_memory_configs":[],"used_scoped_memory_configs":[],"aliasing_operands":{"lists":[{"indices":["3","8"]}]}}
  %get-tuple-element.2803 = f32[64]{0:T(128)S(1)} get-tuple-element(%multiply_add_fusion.28), index=2, metadata={op_name="jit(train_step)/train_step/optimizer/add" stack_frame_id=187}
  %copy-start.121 = (f32[64]{0:T(128)}, f32[64]{0:T(128)S(1)}, u32[]{:S(2)}) copy-start(%get-tuple-element.2803)
  %copy.421 = s32[]{:T(128)} copy(%select_n.118), backend_config={"flag_configs":[],"scoped_memory_configs":[],"used_scoped_memory_configs":[],"aliasing_operands":{"lists":[]}}
  %get-tuple-element.1778 = f32[]{:T(128)} get-tuple-element(%all-reduce.34), index=0, metadata={op_name="jit(train_step)/train_step/forward_backward/jvp()/shard_map/psum" stack_frame_id=184}
  %div.189 = f32[]{:T(128)} multiply(%get-tuple-element.1778, %constant.922), metadata={op_name="jit(train_step)/train_step/forward_backward/jvp()/div" stack_frame_id=129}, backend_config={"flag_configs":[],"scoped_memory_configs":[],"used_scoped_memory_configs":[],"aliasing_operands":{"lists":[]}}
  %get-tuple-element.1779 = bf16[4096]{0:T(1024)(128)(2,1)S(1)} get-tuple-element(%all-reduce.34), index=1, metadata={op_name="jit(train_step)/train_step/forward_backward/transpose(jvp())/reduce_sum" stack_frame_id=122}
  %copy-done.110 = bf16[512]{0:T(512)(128)(2,1)S(1)} copy-done(%copy-start.110)
  %copy-done.113 = f32[512]{0:T(512)S(1)} copy-done(%copy-start.113)
  %copy-done.115 = bf16[512]{0:T(512)(128)(2,1)S(1)} copy-done(%copy-start.115)
  %add_convert_fusion.11 = (bf16[512]{0:T(512)(128)(2,1)S(1)}, bf16[512]{0:T(512)(128)(2,1)S(1)}, f32[512]{0:T(512)S(1)}) fusion(%copy-done.110, %sub.137, %convert_element_type.432, %copy-done.115, %get-tuple-element.1779, /*index=5*/%multiply.163, %copy-done.113), kind=kLoop, calls=%fused_computation.303, metadata={op_name="jit(train_step)/train_step/optimizer/convert_element_type" stack_frame_id=227}, backend_config={"flag_configs":[],"scoped_memory_configs":[],"used_scoped_memory_configs":[],"aliasing_operands":{"lists":[{"indices":["0","7"]},{"indices":["3","8"]},{"indices":["6","9"]}]}}
  %get-tuple-element.2788 = bf16[512]{0:T(512)(128)(2,1)S(1)} get-tuple-element(%add_convert_fusion.11), index=0, metadata={op_name="jit(train_step)/train_step/optimizer/convert_element_type" stack_frame_id=227}
  %copy-start.111 = (bf16[512]{0:T(512)(128)(2,1)}, bf16[512]{0:T(512)(128)(2,1)S(1)}, u32[]{:S(2)}) copy-start(%get-tuple-element.2788)
  %get-tuple-element.2802 = f32[512]{0:T(512)S(1)} get-tuple-element(%add_convert_fusion.11), index=2, metadata={op_name="jit(train_step)/train_step/optimizer/convert_element_type" stack_frame_id=227}
  %copy-start.114 = (f32[512]{0:T(512)}, f32[512]{0:T(512)S(1)}, u32[]{:S(2)}) copy-start(%get-tuple-element.2802)
  %get-tuple-element.2815 = bf16[512]{0:T(512)(128)(2,1)S(1)} get-tuple-element(%add_convert_fusion.11), index=1, metadata={op_name="jit(train_step)/train_step/optimizer/convert_element_type" stack_frame_id=227}
  %copy-start.116 = (bf16[512]{0:T(512)(128)(2,1)}, bf16[512]{0:T(512)(128)(2,1)S(1)}, u32[]{:S(2)}) copy-start(%get-tuple-element.2815)
  %copy-done.66 = bf16[32,512]{1,0:T(8,128)(2,1)S(1)} copy-done(%copy-start.66)
  %copy-done.67 = bf16[32,512]{1,0:T(8,128)(2,1)S(1)} copy-done(%copy-start.67)
  %copy-done.72 = f32[32,512]{1,0:T(8,128)S(1)} copy-done(%copy-start.72)
  %copy-done.74 = f32[32,512]{1,0:T(8,128)S(1)} copy-done(%copy-start.74)
  %copy-done.78 = bf16[32,512]{1,0:T(8,128)(2,1)S(1)} copy-done(%copy-start.78)
  %copy-done.80 = bf16[32,512]{1,0:T(8,128)(2,1)S(1)} copy-done(%copy-start.80)
  %add_convert_fusion.9 = (bf16[32,512]{1,0:T(8,128)(2,1)}, bf16[32,512]{1,0:T(8,128)(2,1)S(1)}, f32[32,512]{1,0:T(8,128)S(1)}, bf16[32,512]{1,0:T(8,128)(2,1)}, bf16[32,512]{1,0:T(8,128)(2,1)S(1)}, /*index=5*/f32[32,512]{1,0:T(8,128)S(1)}) fusion(%param.67, %sub.137, %convert_element_type.432, %copy-done.78, %copy-done.67, /*index=5*/%copy-done.72, %param.61, %copy-done.80, %copy-done.66, %copy-done.74), kind=kLoop, calls=%fused_computation.296, metadata={op_name="jit(train_step)/train_step/optimizer/convert_element_type" stack_frame_id=227}, backend_config={"flag_configs":[],"scoped_memory_configs":[],"used_scoped_memory_configs":[],"fusion_formation_source":{"fusion_creating_compiler_pass":"TpuAdvancedMOF","fusion_id":"42"},"aliasing_operands":{"lists":[{"indices":["0","10"]},{"indices":["3","11"]},{"indices":["5","12"]},{"indices":["6","13"]},{"indices":["7","14"]},{"indices":["9","15"]}]}}
  %get-tuple-element.2808 = f32[32,512]{1,0:T(8,128)S(1)} get-tuple-element(%add_convert_fusion.9), index=2, metadata={op_name="jit(train_step)/train_step/optimizer/convert_element_type" stack_frame_id=227}
  %copy-start.73 = (f32[32,512]{1,0:T(8,128)}, f32[32,512]{1,0:T(8,128)S(1)}, u32[]{:S(2)}) copy-start(%get-tuple-element.2808)
  %get-tuple-element.2804 = f32[32,512]{1,0:T(8,128)S(1)} get-tuple-element(%add_convert_fusion.9), index=5, metadata={op_name="jit(train_step)/train_step/optimizer/convert_element_type" stack_frame_id=227}
  %copy-start.75 = (f32[32,512]{1,0:T(8,128)}, f32[32,512]{1,0:T(8,128)S(1)}, u32[]{:S(2)}) copy-start(%get-tuple-element.2804)
  %get-tuple-element.2821 = bf16[32,512]{1,0:T(8,128)(2,1)S(1)} get-tuple-element(%add_convert_fusion.9), index=1, metadata={op_name="jit(train_step)/train_step/optimizer/convert_element_type" stack_frame_id=227}
  %copy-start.79 = (bf16[32,512]{1,0:T(8,128)(2,1)}, bf16[32,512]{1,0:T(8,128)(2,1)S(1)}, u32[]{:S(2)}) copy-start(%get-tuple-element.2821)
  %get-tuple-element.2817 = bf16[32,512]{1,0:T(8,128)(2,1)S(1)} get-tuple-element(%add_convert_fusion.9), index=4, metadata={op_name="jit(train_step)/train_step/optimizer/convert_element_type" stack_frame_id=227}
  %copy-start.81 = (bf16[32,512]{1,0:T(8,128)(2,1)}, bf16[32,512]{1,0:T(8,128)(2,1)S(1)}, u32[]{:S(2)}) copy-start(%get-tuple-element.2817)
  %get-tuple-element.1246 = bf16[32,512,4096]{2,1,0:T(8,128)(2,1)} get-tuple-element(%while.165), index=10, metadata={op_name="jit(train_step)/train_step/forward_backward/transpose(jvp())/while" stack_frame_id=10}
  %add_convert_fusion.4 = (bf16[32,512,4096]{2,1,0:T(8,128)(2,1)}, bf16[32,512,4096]{2,1,0:T(8,128)(2,1)}, f32[32,512,4096]{2,1,0:T(8,128)}) fusion(%param.66, %sub.137, %convert_element_type.432, %param.96, %get-tuple-element.1246, /*index=5*/%param.95), kind=kLoop, calls=%fused_computation.259, metadata={op_name="jit(train_step)/train_step/optimizer/convert_element_type" stack_frame_id=227}, backend_config={"flag_configs":[],"scoped_memory_configs":[],"used_scoped_memory_configs":[],"aliasing_operands":{"lists":[{"indices":["0","6"]},{"indices":["3","7"]},{"indices":["5","8"]}]}}
  %copy-done.121 = f32[64]{0:T(128)} copy-done(%copy-start.121)
  %copy-done.111 = bf16[512]{0:T(512)(128)(2,1)} copy-done(%copy-start.111)
  %copy-done.114 = f32[512]{0:T(512)} copy-done(%copy-start.114)
  %copy-done.116 = bf16[512]{0:T(512)(128)(2,1)} copy-done(%copy-start.116)
  %copy-done.73 = f32[32,512]{1,0:T(8,128)} copy-done(%copy-start.73)
  %copy-done.75 = f32[32,512]{1,0:T(8,128)} copy-done(%copy-start.75)
  %copy-done.79 = bf16[32,512]{1,0:T(8,128)(2,1)} copy-done(%copy-start.79)
  %copy-done.81 = bf16[32,512]{1,0:T(8,128)(2,1)} copy-done(%copy-start.81)
  %get-tuple-element.1247 = bf16[32,4096,512]{2,1,0:T(8,128)(2,1)} get-tuple-element(%while.165), index=11, metadata={op_name="jit(train_step)/train_step/forward_backward/transpose(jvp())/while" stack_frame_id=10}
  %add_convert_fusion.3 = (bf16[32,4096,512]{2,1,0:T(8,128)(2,1)}, bf16[32,4096,512]{2,1,0:T(8,128)(2,1)}, f32[32,4096,512]{2,1,0:T(8,128)}) fusion(%param.62, %sub.137, %convert_element_type.432, %param.98, %get-tuple-element.1247, /*index=5*/%param.97), kind=kLoop, calls=%fused_computation.257, metadata={op_name="jit(train_step)/train_step/optimizer/convert_element_type" stack_frame_id=227}, backend_config={"flag_configs":[],"scoped_memory_configs":[],"used_scoped_memory_configs":[],"aliasing_operands":{"lists":[{"indices":["0","6"]},{"indices":["3","7"]},{"indices":["5","8"]}]}}
  %get-tuple-element.1258 = f32[4096,129024]{0,1:T(8,128)} get-tuple-element(%while.163), index=2, metadata={op_name="jit(train_step)/train_step/forward_backward/transpose(train_step)/forward_backward/jvp()/shard_map/tokamax:{\"op\":{\"__type\":\"tokamax._src.ops.linear_softmax_cross_entropy_loss.chunked_xla.ChunkedXlaLinearSoftmaxCrossEntropyLossVjp\",\"config\":{\"b_block_size\":1024,\"v_block_size\":2048},\"vjp\":null},\"arguments\":{\"dout\":\"f32[]\",\"labels\":\"i32[32768]\",\"out\":\"f32[]\",\"reduction\":\"sum\",\"residuals\":[\"f32[32768]\"],\"return_residuals\":false,\"w\":\"f32[4096,128256]\",\"x\":\"f32[32768,4096]\"}}/jit(linear_softmax_cross_entropy_loss_bwd_chunked_xla)/while" stack_frame_id=192}
  %slice_multiply_fusion = f32[4096,128256]{0,1:T(8,128)} fusion(%get-tuple-element.1258, %psum.25), kind=kLoop, calls=%fused_computation.229, metadata={op_name="jit(train_step)/train_step/forward_backward/transpose(train_step)/forward_backward/jvp()/shard_map/tokamax:{\"op\":{\"__type\":\"tokamax._src.ops.linear_softmax_cross_entropy_loss.chunked_xla.ChunkedXlaLinearSoftmaxCrossEntropyLossVjp\",\"config\":{\"b_block_size\":1024,\"v_block_size\":2048},\"vjp\":null},\"arguments\":{\"dout\":\"f32[]\",\"labels\":\"i32[32768]\",\"out\":\"f32[]\",\"reduction\":\"sum\",\"residuals\":[\"f32[32768]\"],\"return_residuals\":false,\"w\":\"f32[4096,128256]\",\"x\":\"f32[32768,4096]\"}}/jit(linear_softmax_cross_entropy_loss_bwd_chunked_xla)/mul" stack_frame_id=192}, backend_config={"flag_configs":[],"scoped_memory_configs":[],"used_scoped_memory_configs":[],"aliasing_operands":{"lists":[]}}
  %all-reduce.33.cloned.1.call-done = bf16[128256,4096]{1,0:T(8,128)(2,1)} async-done(%all-reduce.33.cloned.1.call-start)
  %prepare_done_reduce-scatter.40.cloned.1.call-start = token[] custom-call(%prepare_start_reduce-scatter.40.cloned.1.call-start), custom_call_target="PrepareAsyncCallDone", backend_config={"flag_configs":[],"scoped_memory_configs":[],"used_scoped_memory_configs":[],"aliasing_operands":{"lists":[]}}
  %get-tuple-element.1245 = bf16[32,1024,512]{2,1,0:T(8,128)(2,1)} get-tuple-element(%while.165), index=9, metadata={op_name="jit(train_step)/train_step/forward_backward/transpose(jvp())/while" stack_frame_id=10}
  %copy-start.30 = (bf16[32,1024,512]{2,1,0:T(8,128)(2,1)S(1)}, bf16[32,1024,512]{2,1,0:T(8,128)(2,1)}, u32[]{:S(2)}) copy-start(%get-tuple-element.1245)
  %reduce-scatter.40.cloned.1.call-start = ((f32[4096,128256]{0,1:T(8,128)}, s32[32]{0:T(128)}, token[]), f32[512,128256]{0,1:T(8,128)}) async-start(%slice_multiply_fusion, %copy.487, %prepare_done_reduce-scatter.40.cloned.1.call-start), async_execution_thread="sparsecore", calls=%async_computation.11, backend_config={"flag_configs":[],"scoped_memory_configs":[],"megachip_parallelism_config":{"cores":["0"]},"used_scoped_memory_configs":[],"sparse_core_config":{"offload":"OFFLOAD_COLLECTIVE","enable_megacore":true}}
  %get-tuple-element.1248 = bf16[32,1024,512]{2,1,0:T(8,128)(2,1)} get-tuple-element(%while.165), index=12, metadata={op_name="jit(train_step)/train_step/forward_backward/transpose(jvp())/while" stack_frame_id=10}
  %copy-done.30 = bf16[32,1024,512]{2,1,0:T(8,128)(2,1)S(1)} copy-done(%copy-start.30)
  %get-tuple-element.2881 = bf16[32,1024,512]{2,1,0:T(8,128)(2,1)} get-tuple-element(%while.165), index=22
  %get-tuple-element.2879 = bf16[32,1024,512]{2,1,0:T(8,128)(2,1)} get-tuple-element(%while.165), index=19
  %add_convert_fusion.7 = (bf16[32,1024,512]{2,1,0:T(8,128)(2,1)}, bf16[32,1024,512]{2,1,0:T(8,128)(2,1)}, f32[32,1024,512]{2,1,0:T(8,128)}, bf16[32,1024,512]{2,1,0:T(8,128)(2,1)}, bf16[32,1024,512]{2,1,0:T(8,128)(2,1)}, /*index=5*/f32[32,1024,512]{2,1,0:T(8,128)}) fusion(%get-tuple-element.2881, %sub.137, %convert_element_type.432, %param.100, %get-tuple-element.1248, /*index=5*/%param.99, %get-tuple-element.2879, %param.94, %copy-done.30, %param.93), kind=kLoop, calls=%fused_computation.269, metadata={op_name="jit(train_step)/train_step/optimizer/convert_element_type" stack_frame_id=227}, backend_config={"flag_configs":[],"scoped_memory_configs":[],"used_scoped_memory_configs":[],"fusion_formation_source":{"fusion_creating_compiler_pass":"TpuAdvancedMOF","fusion_id":"42"},"aliasing_operands":{"lists":[{"indices":["0","10"]},{"indices":["3","11"]},{"indices":["5","12"]},{"indices":["6","13"]},{"indices":["7","14"]},{"indices":["9","15"]}]}}
  %get-tuple-element.1241 = bf16[32,512,14336]{2,1,0:T(8,128)(2,1)} get-tuple-element(%while.165), index=5, metadata={op_name="jit(train_step)/train_step/forward_backward/transpose(jvp())/while" stack_frame_id=10}
  %add_convert_fusion.2 = (bf16[32,512,14336]{2,1,0:T(8,128)(2,1)}, bf16[32,512,14336]{2,1,0:T(8,128)(2,1)}, f32[32,512,14336]{2,1,0:T(8,128)}) fusion(%param.70, %sub.137, %convert_element_type.432, %param.86, %get-tuple-element.1241, /*index=5*/%param.85), kind=kLoop, calls=%fused_computation.234, metadata={op_name="jit(train_step)/train_step/optimizer/convert_element_type" stack_frame_id=227}, backend_config={"flag_configs":[],"scoped_memory_configs":[],"used_scoped_memory_configs":[],"aliasing_operands":{"lists":[{"indices":["0","6"]},{"indices":["3","7"]},{"indices":["5","8"]}]}}
  %get-tuple-element.1242 = bf16[32,14336,512]{2,1,0:T(8,128)(2,1)} get-tuple-element(%while.165), index=6, metadata={op_name="jit(train_step)/train_step/forward_backward/transpose(jvp())/while" stack_frame_id=10}
  %get-tuple-element.1243 = bf16[32,14336,512]{2,1,0:T(8,128)(2,1)} get-tuple-element(%while.165), index=7, metadata={op_name="jit(train_step)/train_step/forward_backward/transpose(jvp())/while" stack_frame_id=10}
  %add_convert_fusion = (bf16[32,14336,512]{2,1,0:T(8,128)(2,1)}, bf16[32,14336,512]{2,1,0:T(8,128)(2,1)}, f32[32,14336,512]{2,1,0:T(8,128)}, bf16[32,14336,512]{2,1,0:T(8,128)(2,1)}, bf16[32,14336,512]{2,1,0:T(8,128)(2,1)}, /*index=5*/f32[32,14336,512]{2,1,0:T(8,128)}) fusion(%param.69, %sub.137, %convert_element_type.432, %param.90, %get-tuple-element.1243, /*index=5*/%param.89, %param.68, %param.88, %get-tuple-element.1242, %param.87), kind=kLoop, calls=%fused_computation.230, metadata={op_name="jit(train_step)/train_step/optimizer/convert_element_type" stack_frame_id=227}, backend_config={"flag_configs":[],"scoped_memory_configs":[],"used_scoped_memory_configs":[],"fusion_formation_source":{"fusion_creating_compiler_pass":"TpuAdvancedMOF","fusion_id":"42"},"aliasing_operands":{"lists":[{"indices":["0","10"]},{"indices":["3","11"]},{"indices":["5","12"]},{"indices":["6","13"]},{"indices":["7","14"]},{"indices":["9","15"]}]}}
  %add_convert_fusion.5 = (bf16[16032,4096]{1,0:T(8,128)(2,1)}, bf16[16032,4096]{1,0:T(8,128)(2,1)}, f32[16032,4096]{1,0:T(8,128)}) fusion(%param.59, %sub.137, %convert_element_type.432, %param.78, %all-reduce.33.cloned.1.call-done, /*index=5*/%multiply.169, %param.77), kind=kLoop, calls=%fused_computation.262, metadata={op_name="jit(train_step)/train_step/optimizer/convert_element_type" stack_frame_id=227}, backend_config={"flag_configs":[],"scoped_memory_configs":[],"used_scoped_memory_configs":[],"aliasing_operands":{"lists":[{"indices":["0","7"]},{"indices":["3","8"]},{"indices":["6","9"]}]}}
  %reduce-scatter.40.cloned.1.call-done = f32[512,128256]{0,1:T(8,128)} async-done(%reduce-scatter.40.cloned.1.call-start)
  %add_convert_fusion.6 = (bf16[128256,512]{1,0:T(8,128)(2,1)}, bf16[128256,512]{1,0:T(8,128)(2,1)}, f32[128256,512]{1,0:T(8,128)}) fusion(%param.73, %sub.137, %convert_element_type.432, %param.76, %reduce-scatter.40.cloned.1.call-done, /*index=5*/%param.74), kind=kLoop, calls=%fused_computation.264, metadata={op_name="jit(train_step)/train_step/optimizer/convert_element_type" stack_frame_id=227}, backend_config={"flag_configs":[],"scoped_memory_configs":[],"used_scoped_memory_configs":[],"aliasing_operands":{"lists":[{"indices":["0","6"]},{"indices":["3","7"]},{"indices":["5","8"]}]}}
  %get-tuple-element.2795 = bf16[32,1024,512]{2,1,0:T(8,128)(2,1)} get-tuple-element(%add_convert_fusion.7), index=3, metadata={op_name="jit(train_step)/train_step/optimizer/convert_element_type" stack_frame_id=227}
  %get-tuple-element.2798 = bf16[32,1024,512]{2,1,0:T(8,128)(2,1)} get-tuple-element(%add_convert_fusion.7), index=0, metadata={op_name="jit(train_step)/train_step/optimizer/convert_element_type" stack_frame_id=227}
  %get-tuple-element.2809 = f32[32,1024,512]{2,1,0:T(8,128)} get-tuple-element(%add_convert_fusion.7), index=5, metadata={op_name="jit(train_step)/train_step/optimizer/convert_element_type" stack_frame_id=227}
  %get-tuple-element.2812 = f32[32,1024,512]{2,1,0:T(8,128)} get-tuple-element(%add_convert_fusion.7), index=2, metadata={op_name="jit(train_step)/train_step/optimizer/convert_element_type" stack_frame_id=227}
  %get-tuple-element.2822 = bf16[32,1024,512]{2,1,0:T(8,128)(2,1)} get-tuple-element(%add_convert_fusion.7), index=4, metadata={op_name="jit(train_step)/train_step/optimizer/convert_element_type" stack_frame_id=227}
  %get-tuple-element.2825 = bf16[32,1024,512]{2,1,0:T(8,128)(2,1)} get-tuple-element(%add_convert_fusion.7), index=1, metadata={op_name="jit(train_step)/train_step/optimizer/convert_element_type" stack_frame_id=227}
  %get-tuple-element.2792 = bf16[32,14336,512]{2,1,0:T(8,128)(2,1)} get-tuple-element(%add_convert_fusion), index=3, metadata={op_name="jit(train_step)/train_step/optimizer/convert_element_type" stack_frame_id=227}
  %get-tuple-element.2793 = bf16[32,14336,512]{2,1,0:T(8,128)(2,1)} get-tuple-element(%add_convert_fusion), index=0, metadata={op_name="jit(train_step)/train_step/optimizer/convert_element_type" stack_frame_id=227}
  %get-tuple-element.2806 = f32[32,14336,512]{2,1,0:T(8,128)} get-tuple-element(%add_convert_fusion), index=5, metadata={op_name="jit(train_step)/train_step/optimizer/convert_element_type" stack_frame_id=227}
  %get-tuple-element.2807 = f32[32,14336,512]{2,1,0:T(8,128)} get-tuple-element(%add_convert_fusion), index=2, metadata={op_name="jit(train_step)/train_step/optimizer/convert_element_type" stack_frame_id=227}
  %get-tuple-element.2819 = bf16[32,14336,512]{2,1,0:T(8,128)(2,1)} get-tuple-element(%add_convert_fusion), index=4, metadata={op_name="jit(train_step)/train_step/optimizer/convert_element_type" stack_frame_id=227}
  %get-tuple-element.2820 = bf16[32,14336,512]{2,1,0:T(8,128)(2,1)} get-tuple-element(%add_convert_fusion), index=1, metadata={op_name="jit(train_step)/train_step/optimizer/convert_element_type" stack_frame_id=227}
  %get-tuple-element.2790 = bf16[32,512]{1,0:T(8,128)(2,1)} get-tuple-element(%add_convert_fusion.9), index=3, metadata={op_name="jit(train_step)/train_step/optimizer/convert_element_type" stack_frame_id=227}
  %get-tuple-element.2794 = bf16[32,512]{1,0:T(8,128)(2,1)} get-tuple-element(%add_convert_fusion.9), index=0, metadata={op_name="jit(train_step)/train_step/optimizer/convert_element_type" stack_frame_id=227}
  %get-tuple-element.2789 = f32[64]{0:T(128)} get-tuple-element(%multiply_add_fusion.28), index=0, metadata={op_name="jit(train_step)/train_step/optimizer/add" stack_frame_id=187}
  %get-tuple-element.2816 = f32[64]{0:T(128)} get-tuple-element(%multiply_add_fusion.28), index=1, metadata={op_name="jit(train_step)/train_step/optimizer/add" stack_frame_id=187}
  %get-tuple-element.2787 = bf16[16032,4096]{1,0:T(8,128)(2,1)} get-tuple-element(%add_convert_fusion.5), index=0, metadata={op_name="jit(train_step)/train_step/optimizer/convert_element_type" stack_frame_id=227}
  %get-tuple-element.2801 = f32[16032,4096]{1,0:T(8,128)} get-tuple-element(%add_convert_fusion.5), index=2, metadata={op_name="jit(train_step)/train_step/optimizer/convert_element_type" stack_frame_id=227}
  %get-tuple-element.2814 = bf16[16032,4096]{1,0:T(8,128)(2,1)} get-tuple-element(%add_convert_fusion.5), index=1, metadata={op_name="jit(train_step)/train_step/optimizer/convert_element_type" stack_frame_id=227}
  %get-tuple-element.2791 = bf16[32,512,14336]{2,1,0:T(8,128)(2,1)} get-tuple-element(%add_convert_fusion.2), index=0, metadata={op_name="jit(train_step)/train_step/optimizer/convert_element_type" stack_frame_id=227}
  %get-tuple-element.2805 = f32[32,512,14336]{2,1,0:T(8,128)} get-tuple-element(%add_convert_fusion.2), index=2, metadata={op_name="jit(train_step)/train_step/optimizer/convert_element_type" stack_frame_id=227}
  %get-tuple-element.2818 = bf16[32,512,14336]{2,1,0:T(8,128)(2,1)} get-tuple-element(%add_convert_fusion.2), index=1, metadata={op_name="jit(train_step)/train_step/optimizer/convert_element_type" stack_frame_id=227}
  %get-tuple-element.2796 = bf16[32,512,4096]{2,1,0:T(8,128)(2,1)} get-tuple-element(%add_convert_fusion.4), index=0, metadata={op_name="jit(train_step)/train_step/optimizer/convert_element_type" stack_frame_id=227}
  %get-tuple-element.2797 = bf16[32,4096,512]{2,1,0:T(8,128)(2,1)} get-tuple-element(%add_convert_fusion.3), index=0, metadata={op_name="jit(train_step)/train_step/optimizer/convert_element_type" stack_frame_id=227}
  %get-tuple-element.2810 = f32[32,512,4096]{2,1,0:T(8,128)} get-tuple-element(%add_convert_fusion.4), index=2, metadata={op_name="jit(train_step)/train_step/optimizer/convert_element_type" stack_frame_id=227}
  %get-tuple-element.2811 = f32[32,4096,512]{2,1,0:T(8,128)} get-tuple-element(%add_convert_fusion.3), index=2, metadata={op_name="jit(train_step)/train_step/optimizer/convert_element_type" stack_frame_id=227}
  %get-tuple-element.2823 = bf16[32,512,4096]{2,1,0:T(8,128)(2,1)} get-tuple-element(%add_convert_fusion.4), index=1, metadata={op_name="jit(train_step)/train_step/optimizer/convert_element_type" stack_frame_id=227}
  %get-tuple-element.2824 = bf16[32,4096,512]{2,1,0:T(8,128)(2,1)} get-tuple-element(%add_convert_fusion.3), index=1, metadata={op_name="jit(train_step)/train_step/optimizer/convert_element_type" stack_frame_id=227}
  %get-tuple-element.2786 = bf16[128256,512]{1,0:T(8,128)(2,1)} get-tuple-element(%add_convert_fusion.6), index=0, metadata={op_name="jit(train_step)/train_step/optimizer/convert_element_type" stack_frame_id=227}
  %get-tuple-element.2800 = f32[128256,512]{1,0:T(8,128)} get-tuple-element(%add_convert_fusion.6), index=2, metadata={op_name="jit(train_step)/train_step/optimizer/convert_element_type" stack_frame_id=227}
  %get-tuple-element.2813 = bf16[128256,512]{1,0:T(8,128)(2,1)} get-tuple-element(%add_convert_fusion.6), index=1, metadata={op_name="jit(train_step)/train_step/optimizer/convert_element_type" stack_frame_id=227}
  ROOT %tuple.371 = (f32[]{:T(128)}, bf16[128256,512]{1,0:T(8,128)(2,1)}, bf16[16032,4096]{1,0:T(8,128)(2,1)}, bf16[512]{0:T(512)(128)(2,1)}, f32[64]{0:T(128)}, /*index=5*/bf16[32,512]{1,0:T(8,128)(2,1)}, bf16[32,512,14336]{2,1,0:T(8,128)(2,1)}, bf16[32,14336,512]{2,1,0:T(8,128)(2,1)}, bf16[32,14336,512]{2,1,0:T(8,128)(2,1)}, bf16[32,512]{1,0:T(8,128)(2,1)}, /*index=10*/bf16[32,1024,512]{2,1,0:T(8,128)(2,1)}, bf16[32,512,4096]{2,1,0:T(8,128)(2,1)}, bf16[32,4096,512]{2,1,0:T(8,128)(2,1)}, bf16[32,1024,512]{2,1,0:T(8,128)(2,1)}, s32[]{:T(128)}, /*index=15*/f32[128256,512]{1,0:T(8,128)}, f32[16032,4096]{1,0:T(8,128)}, f32[512]{0:T(512)}, f32[64]{0:T(128)}, f32[32,512]{1,0:T(8,128)}, /*index=20*/f32[32,512,14336]{2,1,0:T(8,128)}, f32[32,14336,512]{2,1,0:T(8,128)}, f32[32,14336,512]{2,1,0:T(8,128)}, f32[32,512]{1,0:T(8,128)}, f32[32,1024,512]{2,1,0:T(8,128)}, /*index=25*/f32[32,512,4096]{2,1,0:T(8,128)}, f32[32,4096,512]{2,1,0:T(8,128)}, f32[32,1024,512]{2,1,0:T(8,128)}, bf16[128256,512]{1,0:T(8,128)(2,1)}, bf16[16032,4096]{1,0:T(8,128)(2,1)}, /*index=30*/bf16[512]{0:T(512)(128)(2,1)}, f32[64]{0:T(128)}, bf16[32,512]{1,0:T(8,128)(2,1)}, bf16[32,512,14336]{2,1,0:T(8,128)(2,1)}, bf16[32,14336,512]{2,1,0:T(8,128)(2,1)}, /*index=35*/bf16[32,14336,512]{2,1,0:T(8,128)(2,1)}, bf16[32,512]{1,0:T(8,128)(2,1)}, bf16[32,1024,512]{2,1,0:T(8,128)(2,1)}, bf16[32,512,4096]{2,1,0:T(8,128)(2,1)}, bf16[32,4096,512]{2,1,0:T(8,128)(2,1)}, /*index=40*/bf16[32,1024,512]{2,1,0:T(8,128)(2,1)}) tuple(%div.189, %get-tuple-element.2786, %get-tuple-element.2787, %copy-done.111, %get-tuple-element.2789, /*index=5*/%get-tuple-element.2790, %get-tuple-element.2791, %get-tuple-element.2792, %get-tuple-element.2793, %get-tuple-element.2794, /*index=10*/%get-tuple-element.2795, %get-tuple-element.2796, %get-tuple-element.2797, %get-tuple-element.2798, %copy.421, /*index=15*/%get-tuple-element.2800, %get-tuple-element.2801, %copy-done.114, %copy-done.121, %copy-done.75, /*index=20*/%get-tuple-element.2805, %get-tuple-element.2806, %get-tuple-element.2807, %copy-done.73, %get-tuple-element.2809, /*index=25*/%get-tuple-element.2810, %get-tuple-element.2811, %get-tuple-element.2812, %get-tuple-element.2813, %get-tuple-element.2814, /*index=30*/%copy-done.116, %get-tuple-element.2816, %copy-done.81, %get-tuple-element.2818, %get-tuple-element.2819, /*index=35*/%get-tuple-element.2820, %copy-done.79, %get-tuple-element.2822, %get-tuple-element.2823, %get-tuple-element.2824, /*index=40*/%get-tuple-element.2825)
}

